name: "residual_aw_net"
layer {
  name: "source_data"
  type: "ImageData"
  top: "source_data"
  top: "lp_labels"
  image_data_param {
    source: "./data/imagenet_list.txt"
    batch_size: 16
    shuffle: true
    #label_dim: 1
    new_height: 224 
    new_width: 224
  }
  transform_param {
    crop_size: 224
#mean_file: "./data/ilsvrc12/imagenet_mean.binaryproto"
    mean_file: "./models/deep-residual-networks/ResNet_mean.binaryproto"
    mirror: true
  }
  include: { phase: TRAIN }
}
layer {
  name: "source_domain_labels"
  type: "DummyData"
  top: "source_domain_labels"
  dummy_data_param {
    data_filler {
      type: "constant"
      value: 0
    }
    num: 16
    channels: 1
    height: 1
    width: 1
  }
  include: { phase: TRAIN }
}
layer {
  name: "target_data"
  type: "ImageData"
  top: "target_data"
  top: "target_labels"
  image_data_param {
    source: "./data/caltech_list.txt"
    batch_size: 16
    shuffle: true
    #label_dim: 1
    new_height: 224 
    new_width: 224
  }
  transform_param {
    crop_size: 224
#mean_file: "./data/ilsvrc12/imagenet_mean.binaryproto"
    mean_file: "./models/deep-residual-networks/ResNet_mean.binaryproto"
    mirror: true
  }
  include: { phase: TRAIN }
}

layer {
  name: "target_domain_labels"
  type: "DummyData"
  top: "target_domain_labels"
  dummy_data_param {
    data_filler {
      type: "constant"
      value: 1
    }
    num: 16
    channels: 1
    height: 1
    width: 1
  }
  include: { phase: TRAIN }
}
layer {
  name: "target_data"
  type: "ImageData"
  top: "data"
  top: "lp_labels"
  image_data_param {
    source: "./data/caltech_list.txt"
    batch_size: 1
    shuffle: true
    #label_dim: 1
    new_height: 224 
    new_width: 224
  }
  transform_param {
    crop_size: 224
#mean_file: "./data/ilsvrc12/imagenet_mean.binaryproto"
    mean_file: "./models/deep-residual-networks/ResNet_mean.binaryproto"
    mirror: true
  }
  include: { phase: TEST }
}

layer {
  name: "target_domain_labels"
  type: "DummyData"
  top: "dc_labels"
  dummy_data_param {
    data_filler {
      type: "constant"
      value: 1
    }
    num: 1
    channels: 1
    height: 1
    width: 1
  }
  include: { phase: TEST }
}

layer {
  name: "no_target_label"
  type: "Silence"
  bottom: "target_labels"
  include: { phase:TRAIN }
}

# ---------------------------------------------------------- Data concatenation
layer {
  name: "concat_data"
  type: "Concat"
  bottom: "source_data"
  bottom: "target_data"
  top: "data"
  concat_param {
    concat_dim: 0
  }
  include: { phase: TRAIN }
}
layer {
  name: "concat_domain_labels"
  type: "Concat"
  bottom: "source_domain_labels"
  bottom: "target_domain_labels"
  top: "dc_labels"
  concat_param {
    concat_dim: 0
  }
  include: { phase: TRAIN }
}
layer {
	bottom: "data"
	top: "conv1"
	name: "conv1"
	type: "Convolution"
	convolution_param {
		num_output: 64
		kernel_size: 7
		pad: 3
		stride: 2
	}
}

layer {
	bottom: "conv1"
	top: "conv1"
	name: "bn_conv1"
	type: "BatchNorm"
	batch_norm_param {
		use_global_stats: true
	}
}

layer {
	bottom: "conv1"
	top: "conv1"
	name: "scale_conv1"
	type: "Scale"
	scale_param {
		bias_term: true
	}
}

layer {
	bottom: "conv1"
	top: "conv1"
	name: "conv1_relu"
	type: "ReLU"
}

layer {
	bottom: "conv1"
	top: "pool1"
	name: "pool1"
	type: "Pooling"
	pooling_param {
		kernel_size: 3
		stride: 2
		pool: MAX
	}
}

layer {
	bottom: "pool1"
	top: "res2a_branch1"
	name: "res2a_branch1"
	type: "Convolution"
	convolution_param {
		num_output: 256
		kernel_size: 1
		pad: 0
		stride: 1
		bias_term: false
	}
}

layer {
	bottom: "res2a_branch1"
	top: "res2a_branch1"
	name: "bn2a_branch1"
	type: "BatchNorm"
	batch_norm_param {
		use_global_stats: true
	}
}

layer {
	bottom: "res2a_branch1"
	top: "res2a_branch1"
	name: "scale2a_branch1"
	type: "Scale"
	scale_param {
		bias_term: true
	}
}

layer {
	bottom: "pool1"
	top: "res2a_branch2a"
	name: "res2a_branch2a"
	type: "Convolution"
	convolution_param {
		num_output: 64
		kernel_size: 1
		pad: 0
		stride: 1
		bias_term: false
	}
}

layer {
	bottom: "res2a_branch2a"
	top: "res2a_branch2a"
	name: "bn2a_branch2a"
	type: "BatchNorm"
	batch_norm_param {
		use_global_stats: true
	}
}

layer {
	bottom: "res2a_branch2a"
	top: "res2a_branch2a"
	name: "scale2a_branch2a"
	type: "Scale"
	scale_param {
		bias_term: true
	}
}

layer {
	bottom: "res2a_branch2a"
	top: "res2a_branch2a"
	name: "res2a_branch2a_relu"
	type: "ReLU"
}

layer {
	bottom: "res2a_branch2a"
	top: "res2a_branch2b"
	name: "res2a_branch2b"
	type: "Convolution"
	convolution_param {
		num_output: 64
		kernel_size: 3
		pad: 1
		stride: 1
		bias_term: false
	}
}

layer {
	bottom: "res2a_branch2b"
	top: "res2a_branch2b"
	name: "bn2a_branch2b"
	type: "BatchNorm"
	batch_norm_param {
		use_global_stats: true
	}
}

layer {
	bottom: "res2a_branch2b"
	top: "res2a_branch2b"
	name: "scale2a_branch2b"
	type: "Scale"
	scale_param {
		bias_term: true
	}
}

layer {
	bottom: "res2a_branch2b"
	top: "res2a_branch2b"
	name: "res2a_branch2b_relu"
	type: "ReLU"
}

layer {
	bottom: "res2a_branch2b"
	top: "res2a_branch2c"
	name: "res2a_branch2c"
	type: "Convolution"
	convolution_param {
		num_output: 256
		kernel_size: 1
		pad: 0
		stride: 1
		bias_term: false
	}
}

layer {
	bottom: "res2a_branch2c"
	top: "res2a_branch2c"
	name: "bn2a_branch2c"
	type: "BatchNorm"
	batch_norm_param {
		use_global_stats: true
	}
}

layer {
	bottom: "res2a_branch2c"
	top: "res2a_branch2c"
	name: "scale2a_branch2c"
	type: "Scale"
	scale_param {
		bias_term: true
	}
}

layer {
	bottom: "res2a_branch1"
	bottom: "res2a_branch2c"
	top: "res2a"
	name: "res2a"
	type: "Eltwise"
}

layer {
	bottom: "res2a"
	top: "res2a"
	name: "res2a_relu"
	type: "ReLU"
}

layer {
	bottom: "res2a"
	top: "res2b_branch2a"
	name: "res2b_branch2a"
	type: "Convolution"
	convolution_param {
		num_output: 64
		kernel_size: 1
		pad: 0
		stride: 1
		bias_term: false
	}
}

layer {
	bottom: "res2b_branch2a"
	top: "res2b_branch2a"
	name: "bn2b_branch2a"
	type: "BatchNorm"
	batch_norm_param {
		use_global_stats: true
	}
}

layer {
	bottom: "res2b_branch2a"
	top: "res2b_branch2a"
	name: "scale2b_branch2a"
	type: "Scale"
	scale_param {
		bias_term: true
	}
}

layer {
	bottom: "res2b_branch2a"
	top: "res2b_branch2a"
	name: "res2b_branch2a_relu"
	type: "ReLU"
}

layer {
	bottom: "res2b_branch2a"
	top: "res2b_branch2b"
	name: "res2b_branch2b"
	type: "Convolution"
	convolution_param {
		num_output: 64
		kernel_size: 3
		pad: 1
		stride: 1
		bias_term: false
	}
}

layer {
	bottom: "res2b_branch2b"
	top: "res2b_branch2b"
	name: "bn2b_branch2b"
	type: "BatchNorm"
	batch_norm_param {
		use_global_stats: true
	}
}

layer {
	bottom: "res2b_branch2b"
	top: "res2b_branch2b"
	name: "scale2b_branch2b"
	type: "Scale"
	scale_param {
		bias_term: true
	}
}

layer {
	bottom: "res2b_branch2b"
	top: "res2b_branch2b"
	name: "res2b_branch2b_relu"
	type: "ReLU"
}

layer {
	bottom: "res2b_branch2b"
	top: "res2b_branch2c"
	name: "res2b_branch2c"
	type: "Convolution"
	convolution_param {
		num_output: 256
		kernel_size: 1
		pad: 0
		stride: 1
		bias_term: false
	}
}

layer {
	bottom: "res2b_branch2c"
	top: "res2b_branch2c"
	name: "bn2b_branch2c"
	type: "BatchNorm"
	batch_norm_param {
		use_global_stats: true
	}
}

layer {
	bottom: "res2b_branch2c"
	top: "res2b_branch2c"
	name: "scale2b_branch2c"
	type: "Scale"
	scale_param {
		bias_term: true
	}
}

layer {
	bottom: "res2a"
	bottom: "res2b_branch2c"
	top: "res2b"
	name: "res2b"
	type: "Eltwise"
}

layer {
	bottom: "res2b"
	top: "res2b"
	name: "res2b_relu"
	type: "ReLU"
}

layer {
	bottom: "res2b"
	top: "res2c_branch2a"
	name: "res2c_branch2a"
	type: "Convolution"
	convolution_param {
		num_output: 64
		kernel_size: 1
		pad: 0
		stride: 1
		bias_term: false
	}
}

layer {
	bottom: "res2c_branch2a"
	top: "res2c_branch2a"
	name: "bn2c_branch2a"
	type: "BatchNorm"
	batch_norm_param {
		use_global_stats: true
	}
}

layer {
	bottom: "res2c_branch2a"
	top: "res2c_branch2a"
	name: "scale2c_branch2a"
	type: "Scale"
	scale_param {
		bias_term: true
	}
}

layer {
	bottom: "res2c_branch2a"
	top: "res2c_branch2a"
	name: "res2c_branch2a_relu"
	type: "ReLU"
}

layer {
	bottom: "res2c_branch2a"
	top: "res2c_branch2b"
	name: "res2c_branch2b"
	type: "Convolution"
	convolution_param {
		num_output: 64
		kernel_size: 3
		pad: 1
		stride: 1
		bias_term: false
	}
}

layer {
	bottom: "res2c_branch2b"
	top: "res2c_branch2b"
	name: "bn2c_branch2b"
	type: "BatchNorm"
	batch_norm_param {
		use_global_stats: true
	}
}

layer {
	bottom: "res2c_branch2b"
	top: "res2c_branch2b"
	name: "scale2c_branch2b"
	type: "Scale"
	scale_param {
		bias_term: true
	}
}

layer {
	bottom: "res2c_branch2b"
	top: "res2c_branch2b"
	name: "res2c_branch2b_relu"
	type: "ReLU"
}

layer {
	bottom: "res2c_branch2b"
	top: "res2c_branch2c"
	name: "res2c_branch2c"
	type: "Convolution"
	convolution_param {
		num_output: 256
		kernel_size: 1
		pad: 0
		stride: 1
		bias_term: false
	}
}

layer {
	bottom: "res2c_branch2c"
	top: "res2c_branch2c"
	name: "bn2c_branch2c"
	type: "BatchNorm"
	batch_norm_param {
		use_global_stats: true
	}
}

layer {
	bottom: "res2c_branch2c"
	top: "res2c_branch2c"
	name: "scale2c_branch2c"
	type: "Scale"
	scale_param {
		bias_term: true
	}
}

layer {
	bottom: "res2b"
	bottom: "res2c_branch2c"
	top: "res2c"
	name: "res2c"
	type: "Eltwise"
}

layer {
	bottom: "res2c"
	top: "res2c"
	name: "res2c_relu"
	type: "ReLU"
}

layer {
	bottom: "res2c"
	top: "res3a_branch1"
	name: "res3a_branch1"
	type: "Convolution"
	convolution_param {
		num_output: 512
		kernel_size: 1
		pad: 0
		stride: 2
		bias_term: false
	}
}

layer {
	bottom: "res3a_branch1"
	top: "res3a_branch1"
	name: "bn3a_branch1"
	type: "BatchNorm"
	batch_norm_param {
		use_global_stats: true
	}
}

layer {
	bottom: "res3a_branch1"
	top: "res3a_branch1"
	name: "scale3a_branch1"
	type: "Scale"
	scale_param {
		bias_term: true
	}
}

layer {
	bottom: "res2c"
	top: "res3a_branch2a"
	name: "res3a_branch2a"
	type: "Convolution"
	convolution_param {
		num_output: 128
		kernel_size: 1
		pad: 0
		stride: 2
		bias_term: false
	}
}

layer {
	bottom: "res3a_branch2a"
	top: "res3a_branch2a"
	name: "bn3a_branch2a"
	type: "BatchNorm"
	batch_norm_param {
		use_global_stats: true
	}
}

layer {
	bottom: "res3a_branch2a"
	top: "res3a_branch2a"
	name: "scale3a_branch2a"
	type: "Scale"
	scale_param {
		bias_term: true
	}
}

layer {
	bottom: "res3a_branch2a"
	top: "res3a_branch2a"
	name: "res3a_branch2a_relu"
	type: "ReLU"
}

layer {
	bottom: "res3a_branch2a"
	top: "res3a_branch2b"
	name: "res3a_branch2b"
	type: "Convolution"
	convolution_param {
		num_output: 128
		kernel_size: 3
		pad: 1
		stride: 1
		bias_term: false
	}
}

layer {
	bottom: "res3a_branch2b"
	top: "res3a_branch2b"
	name: "bn3a_branch2b"
	type: "BatchNorm"
	batch_norm_param {
		use_global_stats: true
	}
}

layer {
	bottom: "res3a_branch2b"
	top: "res3a_branch2b"
	name: "scale3a_branch2b"
	type: "Scale"
	scale_param {
		bias_term: true
	}
}

layer {
	bottom: "res3a_branch2b"
	top: "res3a_branch2b"
	name: "res3a_branch2b_relu"
	type: "ReLU"
}

layer {
	bottom: "res3a_branch2b"
	top: "res3a_branch2c"
	name: "res3a_branch2c"
	type: "Convolution"
	convolution_param {
		num_output: 512
		kernel_size: 1
		pad: 0
		stride: 1
		bias_term: false
	}
}

layer {
	bottom: "res3a_branch2c"
	top: "res3a_branch2c"
	name: "bn3a_branch2c"
	type: "BatchNorm"
	batch_norm_param {
		use_global_stats: true
	}
}

layer {
	bottom: "res3a_branch2c"
	top: "res3a_branch2c"
	name: "scale3a_branch2c"
	type: "Scale"
	scale_param {
		bias_term: true
	}
}

layer {
	bottom: "res3a_branch1"
	bottom: "res3a_branch2c"
	top: "res3a"
	name: "res3a"
	type: "Eltwise"
}

layer {
	bottom: "res3a"
	top: "res3a"
	name: "res3a_relu"
	type: "ReLU"
}

layer {
	bottom: "res3a"
	top: "res3b_branch2a"
	name: "res3b_branch2a"
	type: "Convolution"
	convolution_param {
		num_output: 128
		kernel_size: 1
		pad: 0
		stride: 1
		bias_term: false
	}
}

layer {
	bottom: "res3b_branch2a"
	top: "res3b_branch2a"
	name: "bn3b_branch2a"
	type: "BatchNorm"
	batch_norm_param {
		use_global_stats: true
	}
}

layer {
	bottom: "res3b_branch2a"
	top: "res3b_branch2a"
	name: "scale3b_branch2a"
	type: "Scale"
	scale_param {
		bias_term: true
	}
}

layer {
	bottom: "res3b_branch2a"
	top: "res3b_branch2a"
	name: "res3b_branch2a_relu"
	type: "ReLU"
}

layer {
	bottom: "res3b_branch2a"
	top: "res3b_branch2b"
	name: "res3b_branch2b"
	type: "Convolution"
	convolution_param {
		num_output: 128
		kernel_size: 3
		pad: 1
		stride: 1
		bias_term: false
	}
}

layer {
	bottom: "res3b_branch2b"
	top: "res3b_branch2b"
	name: "bn3b_branch2b"
	type: "BatchNorm"
	batch_norm_param {
		use_global_stats: true
	}
}

layer {
	bottom: "res3b_branch2b"
	top: "res3b_branch2b"
	name: "scale3b_branch2b"
	type: "Scale"
	scale_param {
		bias_term: true
	}
}

layer {
	bottom: "res3b_branch2b"
	top: "res3b_branch2b"
	name: "res3b_branch2b_relu"
	type: "ReLU"
}

layer {
	bottom: "res3b_branch2b"
	top: "res3b_branch2c"
	name: "res3b_branch2c"
	type: "Convolution"
	convolution_param {
		num_output: 512
		kernel_size: 1
		pad: 0
		stride: 1
		bias_term: false
	}
}

layer {
	bottom: "res3b_branch2c"
	top: "res3b_branch2c"
	name: "bn3b_branch2c"
	type: "BatchNorm"
	batch_norm_param {
		use_global_stats: true
	}
}

layer {
	bottom: "res3b_branch2c"
	top: "res3b_branch2c"
	name: "scale3b_branch2c"
	type: "Scale"
	scale_param {
		bias_term: true
	}
}

layer {
	bottom: "res3a"
	bottom: "res3b_branch2c"
	top: "res3b"
	name: "res3b"
	type: "Eltwise"
}

layer {
	bottom: "res3b"
	top: "res3b"
	name: "res3b_relu"
	type: "ReLU"
}

layer {
	bottom: "res3b"
	top: "res3c_branch2a"
	name: "res3c_branch2a"
	type: "Convolution"
	convolution_param {
		num_output: 128
		kernel_size: 1
		pad: 0
		stride: 1
		bias_term: false
	}
}

layer {
	bottom: "res3c_branch2a"
	top: "res3c_branch2a"
	name: "bn3c_branch2a"
	type: "BatchNorm"
	batch_norm_param {
		use_global_stats: true
	}
}

layer {
	bottom: "res3c_branch2a"
	top: "res3c_branch2a"
	name: "scale3c_branch2a"
	type: "Scale"
	scale_param {
		bias_term: true
	}
}

layer {
	bottom: "res3c_branch2a"
	top: "res3c_branch2a"
	name: "res3c_branch2a_relu"
	type: "ReLU"
}

layer {
	bottom: "res3c_branch2a"
	top: "res3c_branch2b"
	name: "res3c_branch2b"
	type: "Convolution"
	convolution_param {
		num_output: 128
		kernel_size: 3
		pad: 1
		stride: 1
		bias_term: false
	}
}

layer {
	bottom: "res3c_branch2b"
	top: "res3c_branch2b"
	name: "bn3c_branch2b"
	type: "BatchNorm"
	batch_norm_param {
		use_global_stats: true
	}
}

layer {
	bottom: "res3c_branch2b"
	top: "res3c_branch2b"
	name: "scale3c_branch2b"
	type: "Scale"
	scale_param {
		bias_term: true
	}
}

layer {
	bottom: "res3c_branch2b"
	top: "res3c_branch2b"
	name: "res3c_branch2b_relu"
	type: "ReLU"
}

layer {
	bottom: "res3c_branch2b"
	top: "res3c_branch2c"
	name: "res3c_branch2c"
	type: "Convolution"
	convolution_param {
		num_output: 512
		kernel_size: 1
		pad: 0
		stride: 1
		bias_term: false
	}
}

layer {
	bottom: "res3c_branch2c"
	top: "res3c_branch2c"
	name: "bn3c_branch2c"
	type: "BatchNorm"
	batch_norm_param {
		use_global_stats: true
	}
}

layer {
	bottom: "res3c_branch2c"
	top: "res3c_branch2c"
	name: "scale3c_branch2c"
	type: "Scale"
	scale_param {
		bias_term: true
	}
}

layer {
	bottom: "res3b"
	bottom: "res3c_branch2c"
	top: "res3c"
	name: "res3c"
	type: "Eltwise"
}

layer {
	bottom: "res3c"
	top: "res3c"
	name: "res3c_relu"
	type: "ReLU"
}

layer {
	bottom: "res3c"
	top: "res3d_branch2a"
	name: "res3d_branch2a"
	type: "Convolution"
	convolution_param {
		num_output: 128
		kernel_size: 1
		pad: 0
		stride: 1
		bias_term: false
	}
}

layer {
	bottom: "res3d_branch2a"
	top: "res3d_branch2a"
	name: "bn3d_branch2a"
	type: "BatchNorm"
	batch_norm_param {
		use_global_stats: true
	}
}

layer {
	bottom: "res3d_branch2a"
	top: "res3d_branch2a"
	name: "scale3d_branch2a"
	type: "Scale"
	scale_param {
		bias_term: true
	}
}

layer {
	bottom: "res3d_branch2a"
	top: "res3d_branch2a"
	name: "res3d_branch2a_relu"
	type: "ReLU"
}

layer {
	bottom: "res3d_branch2a"
	top: "res3d_branch2b"
	name: "res3d_branch2b"
	type: "Convolution"
	convolution_param {
		num_output: 128
		kernel_size: 3
		pad: 1
		stride: 1
		bias_term: false
	}
}

layer {
	bottom: "res3d_branch2b"
	top: "res3d_branch2b"
	name: "bn3d_branch2b"
	type: "BatchNorm"
	batch_norm_param {
		use_global_stats: true
	}
}

layer {
	bottom: "res3d_branch2b"
	top: "res3d_branch2b"
	name: "scale3d_branch2b"
	type: "Scale"
	scale_param {
		bias_term: true
	}
}

layer {
	bottom: "res3d_branch2b"
	top: "res3d_branch2b"
	name: "res3d_branch2b_relu"
	type: "ReLU"
}

layer {
	bottom: "res3d_branch2b"
	top: "res3d_branch2c"
	name: "res3d_branch2c"
	type: "Convolution"
	convolution_param {
		num_output: 512
		kernel_size: 1
		pad: 0
		stride: 1
		bias_term: false
	}
}

layer {
	bottom: "res3d_branch2c"
	top: "res3d_branch2c"
	name: "bn3d_branch2c"
	type: "BatchNorm"
	batch_norm_param {
		use_global_stats: true
	}
}

layer {
	bottom: "res3d_branch2c"
	top: "res3d_branch2c"
	name: "scale3d_branch2c"
	type: "Scale"
	scale_param {
		bias_term: true
	}
}

layer {
	bottom: "res3c"
	bottom: "res3d_branch2c"
	top: "res3d"
	name: "res3d"
	type: "Eltwise"
}

layer {
	bottom: "res3d"
	top: "res3d"
	name: "res3d_relu"
	type: "ReLU"
}

layer {
	bottom: "res3d"
	top: "res4a_branch1"
	name: "res4a_branch1"
	type: "Convolution"
	convolution_param {
		num_output: 1024
		kernel_size: 1
		pad: 0
		stride: 2
		bias_term: false
	}
}

layer {
	bottom: "res4a_branch1"
	top: "res4a_branch1"
	name: "bn4a_branch1"
	type: "BatchNorm"
	batch_norm_param {
		use_global_stats: true
	}
}

layer {
	bottom: "res4a_branch1"
	top: "res4a_branch1"
	name: "scale4a_branch1"
	type: "Scale"
	scale_param {
		bias_term: true
	}
}

layer {
	bottom: "res3d"
	top: "res4a_branch2a"
	name: "res4a_branch2a"
	type: "Convolution"
	convolution_param {
		num_output: 256
		kernel_size: 1
		pad: 0
		stride: 2
		bias_term: false
	}
}

layer {
	bottom: "res4a_branch2a"
	top: "res4a_branch2a"
	name: "bn4a_branch2a"
	type: "BatchNorm"
	batch_norm_param {
		use_global_stats: true
	}
}

layer {
	bottom: "res4a_branch2a"
	top: "res4a_branch2a"
	name: "scale4a_branch2a"
	type: "Scale"
	scale_param {
		bias_term: true
	}
}

layer {
	bottom: "res4a_branch2a"
	top: "res4a_branch2a"
	name: "res4a_branch2a_relu"
	type: "ReLU"
}

layer {
	bottom: "res4a_branch2a"
	top: "res4a_branch2b"
	name: "res4a_branch2b"
	type: "Convolution"
	convolution_param {
		num_output: 256
		kernel_size: 3
		pad: 1
		stride: 1
		bias_term: false
	}
}

layer {
	bottom: "res4a_branch2b"
	top: "res4a_branch2b"
	name: "bn4a_branch2b"
	type: "BatchNorm"
	batch_norm_param {
		use_global_stats: true
	}
}

layer {
	bottom: "res4a_branch2b"
	top: "res4a_branch2b"
	name: "scale4a_branch2b"
	type: "Scale"
	scale_param {
		bias_term: true
	}
}

layer {
	bottom: "res4a_branch2b"
	top: "res4a_branch2b"
	name: "res4a_branch2b_relu"
	type: "ReLU"
}

layer {
	bottom: "res4a_branch2b"
	top: "res4a_branch2c"
	name: "res4a_branch2c"
	type: "Convolution"
	convolution_param {
		num_output: 1024
		kernel_size: 1
		pad: 0
		stride: 1
		bias_term: false
	}
}

layer {
	bottom: "res4a_branch2c"
	top: "res4a_branch2c"
	name: "bn4a_branch2c"
	type: "BatchNorm"
	batch_norm_param {
		use_global_stats: true
	}
}

layer {
	bottom: "res4a_branch2c"
	top: "res4a_branch2c"
	name: "scale4a_branch2c"
	type: "Scale"
	scale_param {
		bias_term: true
	}
}

layer {
	bottom: "res4a_branch1"
	bottom: "res4a_branch2c"
	top: "res4a"
	name: "res4a"
	type: "Eltwise"
}

layer {
	bottom: "res4a"
	top: "res4a"
	name: "res4a_relu"
	type: "ReLU"
}

layer {
	bottom: "res4a"
	top: "res4b_branch2a"
	name: "res4b_branch2a"
	type: "Convolution"
	convolution_param {
		num_output: 256
		kernel_size: 1
		pad: 0
		stride: 1
		bias_term: false
	}
}

layer {
	bottom: "res4b_branch2a"
	top: "res4b_branch2a"
	name: "bn4b_branch2a"
	type: "BatchNorm"
	batch_norm_param {
		use_global_stats: true
	}
}

layer {
	bottom: "res4b_branch2a"
	top: "res4b_branch2a"
	name: "scale4b_branch2a"
	type: "Scale"
	scale_param {
		bias_term: true
	}
}

layer {
	bottom: "res4b_branch2a"
	top: "res4b_branch2a"
	name: "res4b_branch2a_relu"
	type: "ReLU"
}

layer {
	bottom: "res4b_branch2a"
	top: "res4b_branch2b"
	name: "res4b_branch2b"
	type: "Convolution"
	convolution_param {
		num_output: 256
		kernel_size: 3
		pad: 1
		stride: 1
		bias_term: false
	}
}

layer {
	bottom: "res4b_branch2b"
	top: "res4b_branch2b"
	name: "bn4b_branch2b"
	type: "BatchNorm"
	batch_norm_param {
		use_global_stats: true
	}
}

layer {
	bottom: "res4b_branch2b"
	top: "res4b_branch2b"
	name: "scale4b_branch2b"
	type: "Scale"
	scale_param {
		bias_term: true
	}
}

layer {
	bottom: "res4b_branch2b"
	top: "res4b_branch2b"
	name: "res4b_branch2b_relu"
	type: "ReLU"
}

layer {
	bottom: "res4b_branch2b"
	top: "res4b_branch2c"
	name: "res4b_branch2c"
	type: "Convolution"
	convolution_param {
		num_output: 1024
		kernel_size: 1
		pad: 0
		stride: 1
		bias_term: false
	}
}

layer {
	bottom: "res4b_branch2c"
	top: "res4b_branch2c"
	name: "bn4b_branch2c"
	type: "BatchNorm"
	batch_norm_param {
		use_global_stats: true
	}
}

layer {
	bottom: "res4b_branch2c"
	top: "res4b_branch2c"
	name: "scale4b_branch2c"
	type: "Scale"
	scale_param {
		bias_term: true
	}
}

layer {
	bottom: "res4a"
	bottom: "res4b_branch2c"
	top: "res4b"
	name: "res4b"
	type: "Eltwise"
}

layer {
	bottom: "res4b"
	top: "res4b"
	name: "res4b_relu"
	type: "ReLU"
}

layer {
	bottom: "res4b"
	top: "res4c_branch2a"
	name: "res4c_branch2a"
	type: "Convolution"
	convolution_param {
		num_output: 256
		kernel_size: 1
		pad: 0
		stride: 1
		bias_term: false
	}
}

layer {
	bottom: "res4c_branch2a"
	top: "res4c_branch2a"
	name: "bn4c_branch2a"
	type: "BatchNorm"
	batch_norm_param {
		use_global_stats: true
	}
}

layer {
	bottom: "res4c_branch2a"
	top: "res4c_branch2a"
	name: "scale4c_branch2a"
	type: "Scale"
	scale_param {
		bias_term: true
	}
}

layer {
	bottom: "res4c_branch2a"
	top: "res4c_branch2a"
	name: "res4c_branch2a_relu"
	type: "ReLU"
}

layer {
	bottom: "res4c_branch2a"
	top: "res4c_branch2b"
	name: "res4c_branch2b"
	type: "Convolution"
	convolution_param {
		num_output: 256
		kernel_size: 3
		pad: 1
		stride: 1
		bias_term: false
	}
}

layer {
	bottom: "res4c_branch2b"
	top: "res4c_branch2b"
	name: "bn4c_branch2b"
	type: "BatchNorm"
	batch_norm_param {
		use_global_stats: true
	}
}

layer {
	bottom: "res4c_branch2b"
	top: "res4c_branch2b"
	name: "scale4c_branch2b"
	type: "Scale"
	scale_param {
		bias_term: true
	}
}

layer {
	bottom: "res4c_branch2b"
	top: "res4c_branch2b"
	name: "res4c_branch2b_relu"
	type: "ReLU"
}

layer {
	bottom: "res4c_branch2b"
	top: "res4c_branch2c"
	name: "res4c_branch2c"
	type: "Convolution"
	convolution_param {
		num_output: 1024
		kernel_size: 1
		pad: 0
		stride: 1
		bias_term: false
	}
}

layer {
	bottom: "res4c_branch2c"
	top: "res4c_branch2c"
	name: "bn4c_branch2c"
	type: "BatchNorm"
	batch_norm_param {
		use_global_stats: true
	}
}

layer {
	bottom: "res4c_branch2c"
	top: "res4c_branch2c"
	name: "scale4c_branch2c"
	type: "Scale"
	scale_param {
		bias_term: true
	}
}

layer {
	bottom: "res4b"
	bottom: "res4c_branch2c"
	top: "res4c"
	name: "res4c"
	type: "Eltwise"
}

layer {
	bottom: "res4c"
	top: "res4c"
	name: "res4c_relu"
	type: "ReLU"
}

layer {
	bottom: "res4c"
	top: "res4d_branch2a"
	name: "res4d_branch2a"
	type: "Convolution"
	convolution_param {
		num_output: 256
		kernel_size: 1
		pad: 0
		stride: 1
		bias_term: false
	}
}

layer {
	bottom: "res4d_branch2a"
	top: "res4d_branch2a"
	name: "bn4d_branch2a"
	type: "BatchNorm"
	batch_norm_param {
		use_global_stats: true
	}
}

layer {
	bottom: "res4d_branch2a"
	top: "res4d_branch2a"
	name: "scale4d_branch2a"
	type: "Scale"
	scale_param {
		bias_term: true
	}
}

layer {
	bottom: "res4d_branch2a"
	top: "res4d_branch2a"
	name: "res4d_branch2a_relu"
	type: "ReLU"
}

layer {
	bottom: "res4d_branch2a"
	top: "res4d_branch2b"
	name: "res4d_branch2b"
	type: "Convolution"
	convolution_param {
		num_output: 256
		kernel_size: 3
		pad: 1
		stride: 1
		bias_term: false
	}
}

layer {
	bottom: "res4d_branch2b"
	top: "res4d_branch2b"
	name: "bn4d_branch2b"
	type: "BatchNorm"
	batch_norm_param {
		use_global_stats: true
	}
}

layer {
	bottom: "res4d_branch2b"
	top: "res4d_branch2b"
	name: "scale4d_branch2b"
	type: "Scale"
	scale_param {
		bias_term: true
	}
}

layer {
	bottom: "res4d_branch2b"
	top: "res4d_branch2b"
	name: "res4d_branch2b_relu"
	type: "ReLU"
}

layer {
	bottom: "res4d_branch2b"
	top: "res4d_branch2c"
	name: "res4d_branch2c"
	type: "Convolution"
	convolution_param {
		num_output: 1024
		kernel_size: 1
		pad: 0
		stride: 1
		bias_term: false
	}
}

layer {
	bottom: "res4d_branch2c"
	top: "res4d_branch2c"
	name: "bn4d_branch2c"
	type: "BatchNorm"
	batch_norm_param {
		use_global_stats: true
	}
}

layer {
	bottom: "res4d_branch2c"
	top: "res4d_branch2c"
	name: "scale4d_branch2c"
	type: "Scale"
	scale_param {
		bias_term: true
	}
}

layer {
	bottom: "res4c"
	bottom: "res4d_branch2c"
	top: "res4d"
	name: "res4d"
	type: "Eltwise"
}

layer {
	bottom: "res4d"
	top: "res4d"
	name: "res4d_relu"
	type: "ReLU"
}

layer {
	bottom: "res4d"
	top: "res4e_branch2a"
	name: "res4e_branch2a"
	type: "Convolution"
	convolution_param {
		num_output: 256
		kernel_size: 1
		pad: 0
		stride: 1
		bias_term: false
	}
}

layer {
	bottom: "res4e_branch2a"
	top: "res4e_branch2a"
	name: "bn4e_branch2a"
	type: "BatchNorm"
	batch_norm_param {
		use_global_stats: true
	}
}

layer {
	bottom: "res4e_branch2a"
	top: "res4e_branch2a"
	name: "scale4e_branch2a"
	type: "Scale"
	scale_param {
		bias_term: true
	}
}

layer {
	bottom: "res4e_branch2a"
	top: "res4e_branch2a"
	name: "res4e_branch2a_relu"
	type: "ReLU"
}

layer {
	bottom: "res4e_branch2a"
	top: "res4e_branch2b"
	name: "res4e_branch2b"
	type: "Convolution"
	convolution_param {
		num_output: 256
		kernel_size: 3
		pad: 1
		stride: 1
		bias_term: false
	}
}

layer {
	bottom: "res4e_branch2b"
	top: "res4e_branch2b"
	name: "bn4e_branch2b"
	type: "BatchNorm"
	batch_norm_param {
		use_global_stats: true
	}
}

layer {
	bottom: "res4e_branch2b"
	top: "res4e_branch2b"
	name: "scale4e_branch2b"
	type: "Scale"
	scale_param {
		bias_term: true
	}
}

layer {
	bottom: "res4e_branch2b"
	top: "res4e_branch2b"
	name: "res4e_branch2b_relu"
	type: "ReLU"
}

layer {
	bottom: "res4e_branch2b"
	top: "res4e_branch2c"
	name: "res4e_branch2c"
	type: "Convolution"
	convolution_param {
		num_output: 1024
		kernel_size: 1
		pad: 0
		stride: 1
		bias_term: false
	}
}

layer {
	bottom: "res4e_branch2c"
	top: "res4e_branch2c"
	name: "bn4e_branch2c"
	type: "BatchNorm"
	batch_norm_param {
		use_global_stats: true
	}
}

layer {
	bottom: "res4e_branch2c"
	top: "res4e_branch2c"
	name: "scale4e_branch2c"
	type: "Scale"
	scale_param {
		bias_term: true
	}
}

layer {
	bottom: "res4d"
	bottom: "res4e_branch2c"
	top: "res4e"
	name: "res4e"
	type: "Eltwise"
}

layer {
	bottom: "res4e"
	top: "res4e"
	name: "res4e_relu"
	type: "ReLU"
}

layer {
	bottom: "res4e"
	top: "res4f_branch2a"
	name: "res4f_branch2a"
	type: "Convolution"
	convolution_param {
		num_output: 256
		kernel_size: 1
		pad: 0
		stride: 1
		bias_term: false
	}
}

layer {
	bottom: "res4f_branch2a"
	top: "res4f_branch2a"
	name: "bn4f_branch2a"
	type: "BatchNorm"
	batch_norm_param {
		use_global_stats: true
	}
}

layer {
	bottom: "res4f_branch2a"
	top: "res4f_branch2a"
	name: "scale4f_branch2a"
	type: "Scale"
	scale_param {
		bias_term: true
	}
}

layer {
	bottom: "res4f_branch2a"
	top: "res4f_branch2a"
	name: "res4f_branch2a_relu"
	type: "ReLU"
}

layer {
	bottom: "res4f_branch2a"
	top: "res4f_branch2b"
	name: "res4f_branch2b"
	type: "Convolution"
	convolution_param {
		num_output: 256
		kernel_size: 3
		pad: 1
		stride: 1
		bias_term: false
	}
}

layer {
	bottom: "res4f_branch2b"
	top: "res4f_branch2b"
	name: "bn4f_branch2b"
	type: "BatchNorm"
	batch_norm_param {
		use_global_stats: true
	}
}

layer {
	bottom: "res4f_branch2b"
	top: "res4f_branch2b"
	name: "scale4f_branch2b"
	type: "Scale"
	scale_param {
		bias_term: true
	}
}

layer {
	bottom: "res4f_branch2b"
	top: "res4f_branch2b"
	name: "res4f_branch2b_relu"
	type: "ReLU"
}

layer {
	bottom: "res4f_branch2b"
	top: "res4f_branch2c"
	name: "res4f_branch2c"
	type: "Convolution"
	convolution_param {
		num_output: 1024
		kernel_size: 1
		pad: 0
		stride: 1
		bias_term: false
	}
}

layer {
	bottom: "res4f_branch2c"
	top: "res4f_branch2c"
	name: "bn4f_branch2c"
	type: "BatchNorm"
	batch_norm_param {
		use_global_stats: true
	}
}

layer {
	bottom: "res4f_branch2c"
	top: "res4f_branch2c"
	name: "scale4f_branch2c"
	type: "Scale"
	scale_param {
		bias_term: true
	}
}

layer {
	bottom: "res4e"
	bottom: "res4f_branch2c"
	top: "res4f"
	name: "res4f"
	type: "Eltwise"
}

layer {
	bottom: "res4f"
	top: "res4f"
	name: "res4f_relu"
	type: "ReLU"
}

layer {
	bottom: "res4f"
	top: "res5a_branch1"
	name: "res5a_branch1"
	type: "Convolution"
	convolution_param {
		num_output: 2048
		kernel_size: 1
		pad: 0
		stride: 2
		bias_term: false
	}
}

layer {
	bottom: "res5a_branch1"
	top: "res5a_branch1"
	name: "bn5a_branch1"
	type: "BatchNorm"
	batch_norm_param {
		use_global_stats: true
	}
}

layer {
	bottom: "res5a_branch1"
	top: "res5a_branch1"
	name: "scale5a_branch1"
	type: "Scale"
	scale_param {
		bias_term: true
	}
}

layer {
	bottom: "res4f"
	top: "res5a_branch2a"
	name: "res5a_branch2a"
	type: "Convolution"
	convolution_param {
		num_output: 512
		kernel_size: 1
		pad: 0
		stride: 2
		bias_term: false
	}
}

layer {
	bottom: "res5a_branch2a"
	top: "res5a_branch2a"
	name: "bn5a_branch2a"
	type: "BatchNorm"
	batch_norm_param {
		use_global_stats: true
	}
}

layer {
	bottom: "res5a_branch2a"
	top: "res5a_branch2a"
	name: "scale5a_branch2a"
	type: "Scale"
	scale_param {
		bias_term: true
	}
}

layer {
	bottom: "res5a_branch2a"
	top: "res5a_branch2a"
	name: "res5a_branch2a_relu"
	type: "ReLU"
}

layer {
	bottom: "res5a_branch2a"
	top: "res5a_branch2b"
	name: "res5a_branch2b"
	type: "Convolution"
	convolution_param {
		num_output: 512
		kernel_size: 3
		pad: 1
		stride: 1
		bias_term: false
	}
}

layer {
	bottom: "res5a_branch2b"
	top: "res5a_branch2b"
	name: "bn5a_branch2b"
	type: "BatchNorm"
	batch_norm_param {
		use_global_stats: true
	}
}

layer {
	bottom: "res5a_branch2b"
	top: "res5a_branch2b"
	name: "scale5a_branch2b"
	type: "Scale"
	scale_param {
		bias_term: true
	}
}

layer {
	bottom: "res5a_branch2b"
	top: "res5a_branch2b"
	name: "res5a_branch2b_relu"
	type: "ReLU"
}

layer {
	bottom: "res5a_branch2b"
	top: "res5a_branch2c"
	name: "res5a_branch2c"
	type: "Convolution"
	convolution_param {
		num_output: 2048
		kernel_size: 1
		pad: 0
		stride: 1
		bias_term: false
	}
}

layer {
	bottom: "res5a_branch2c"
	top: "res5a_branch2c"
	name: "bn5a_branch2c"
	type: "BatchNorm"
	batch_norm_param {
		use_global_stats: true
	}
}

layer {
	bottom: "res5a_branch2c"
	top: "res5a_branch2c"
	name: "scale5a_branch2c"
	type: "Scale"
	scale_param {
		bias_term: true
	}
}

layer {
	bottom: "res5a_branch1"
	bottom: "res5a_branch2c"
	top: "res5a"
	name: "res5a"
	type: "Eltwise"
}

layer {
	bottom: "res5a"
	top: "res5a"
	name: "res5a_relu"
	type: "ReLU"
}

layer {
	bottom: "res5a"
	top: "res5b_branch2a"
	name: "res5b_branch2a"
	type: "Convolution"
	convolution_param {
		num_output: 512
		kernel_size: 1
		pad: 0
		stride: 1
		bias_term: false
	}
}

layer {
	bottom: "res5b_branch2a"
	top: "res5b_branch2a"
	name: "bn5b_branch2a"
	type: "BatchNorm"
	batch_norm_param {
		use_global_stats: true
	}
}

layer {
	bottom: "res5b_branch2a"
	top: "res5b_branch2a"
	name: "scale5b_branch2a"
	type: "Scale"
	scale_param {
		bias_term: true
	}
}

layer {
	bottom: "res5b_branch2a"
	top: "res5b_branch2a"
	name: "res5b_branch2a_relu"
	type: "ReLU"
}

layer {
	bottom: "res5b_branch2a"
	top: "res5b_branch2b"
	name: "res5b_branch2b"
	type: "Convolution"
	convolution_param {
		num_output: 512
		kernel_size: 3
		pad: 1
		stride: 1
		bias_term: false
	}
}

layer {
	bottom: "res5b_branch2b"
	top: "res5b_branch2b"
	name: "bn5b_branch2b"
	type: "BatchNorm"
	batch_norm_param {
		use_global_stats: true
	}
}

layer {
	bottom: "res5b_branch2b"
	top: "res5b_branch2b"
	name: "scale5b_branch2b"
	type: "Scale"
	scale_param {
		bias_term: true
	}
}

layer {
	bottom: "res5b_branch2b"
	top: "res5b_branch2b"
	name: "res5b_branch2b_relu"
	type: "ReLU"
}

layer {
	bottom: "res5b_branch2b"
	top: "res5b_branch2c"
	name: "res5b_branch2c"
	type: "Convolution"
	convolution_param {
		num_output: 2048
		kernel_size: 1
		pad: 0
		stride: 1
		bias_term: false
	}
}

layer {
	bottom: "res5b_branch2c"
	top: "res5b_branch2c"
	name: "bn5b_branch2c"
	type: "BatchNorm"
	batch_norm_param {
		use_global_stats: true
	}
}

layer {
	bottom: "res5b_branch2c"
	top: "res5b_branch2c"
	name: "scale5b_branch2c"
	type: "Scale"
	scale_param {
		bias_term: true
	}
}

layer {
	bottom: "res5a"
	bottom: "res5b_branch2c"
	top: "res5b"
	name: "res5b"
	type: "Eltwise"
}

layer {
	bottom: "res5b"
	top: "res5b"
	name: "res5b_relu"
	type: "ReLU"
}

layer {
	bottom: "res5b"
	top: "res5c_branch2a"
	name: "res5c_branch2a"
	type: "Convolution"
	convolution_param {
		num_output: 512
		kernel_size: 1
		pad: 0
		stride: 1
		bias_term: false
	}
}

layer {
	bottom: "res5c_branch2a"
	top: "res5c_branch2a"
	name: "bn5c_branch2a"
	type: "BatchNorm"
	batch_norm_param {
		use_global_stats: true
	}
}

layer {
	bottom: "res5c_branch2a"
	top: "res5c_branch2a"
	name: "scale5c_branch2a"
	type: "Scale"
	scale_param {
		bias_term: true
	}
}

layer {
	bottom: "res5c_branch2a"
	top: "res5c_branch2a"
	name: "res5c_branch2a_relu"
	type: "ReLU"
}

layer {
	bottom: "res5c_branch2a"
	top: "res5c_branch2b"
	name: "res5c_branch2b"
	type: "Convolution"
	convolution_param {
		num_output: 512
		kernel_size: 3
		pad: 1
		stride: 1
		bias_term: false
	}
}

layer {
	bottom: "res5c_branch2b"
	top: "res5c_branch2b"
	name: "bn5c_branch2b"
	type: "BatchNorm"
	batch_norm_param {
		use_global_stats: true
	}
}

layer {
	bottom: "res5c_branch2b"
	top: "res5c_branch2b"
	name: "scale5c_branch2b"
	type: "Scale"
	scale_param {
		bias_term: true
	}
}

layer {
	bottom: "res5c_branch2b"
	top: "res5c_branch2b"
	name: "res5c_branch2b_relu"
	type: "ReLU"
}

layer {
	bottom: "res5c_branch2b"
	top: "res5c_branch2c"
	name: "res5c_branch2c"
	type: "Convolution"
	convolution_param {
		num_output: 2048
		kernel_size: 1
		pad: 0
		stride: 1
		bias_term: false
	}
}

layer {
	bottom: "res5c_branch2c"
	top: "res5c_branch2c"
	name: "bn5c_branch2c"
	type: "BatchNorm"
	batch_norm_param {
		use_global_stats: true
	}
}

layer {
	bottom: "res5c_branch2c"
	top: "res5c_branch2c"
	name: "scale5c_branch2c"
	type: "Scale"
	scale_param {
		bias_term: true
	}
}

layer {
	bottom: "res5b"
	bottom: "res5c_branch2c"
	top: "res5c"
	name: "res5c"
	type: "Eltwise"
}

layer {
	bottom: "res5c"
	top: "res5c"
	name: "res5c_relu"
	type: "ReLU"
}

layer {
	bottom: "res5c"
	top: "pool5"
	name: "pool5"
	type: "Pooling"
	pooling_param {
		kernel_size: 7
		stride: 1
		pool: AVE
	}
    propagate_down: false
}
layer {
	bottom: "pool5"
	top: "bottleneck"
	name: "bottleneck"
	type: "InnerProduct"
    param {
      lr_mult: 10
      decay_mult: 1
    }
    param {
      lr_mult: 20
      decay_mult: 0
    }
	inner_product_param {
      weight_filler{
        type: "gaussian"
        std: 0.005
      }
      bias_filler {
        type: "constant"
        value: 0.1
      }
	  num_output: 256
	}
}
layer {
  name: "lp_fc8"
  type: "InnerProduct"
  bottom: "bottleneck"
  top: "features_fc8"
  param {
    lr_mult: 10
    decay_mult: 1
  }
  param {
    lr_mult: 20
    decay_mult: 0
  }
  inner_product_param {
    num_output: 98
    weight_filler {
      type: "gaussian"
      std: 0.01
    }
    bias_filler {
      type: "constant"
      value: 0
    }
  }
}
layer {
  name: "slice_features_fc7"
  type: "Slice"
  bottom: "features_fc8"
  top: "source_features_fc8"
  top: "target_features_fc8"
  slice_param {
    slice_dim: 0
  }
  include: { phase: TRAIN }
}
layer {
  name: "kill_target_features_fc8"
  type: "Silence"
  bottom: "target_features_fc8"
   include: { phase: TRAIN }
}
layer {
  name: "lp_accuracy"
  type: "Accuracy"
  bottom: "features_fc8"
  bottom: "lp_labels"
  top: "lp_accuracy"
  include: { phase: TEST }
}
layer {
  name: "lp_loss"
  type: "SoftmaxWithLoss"
  bottom: "source_features_fc8"
  bottom: "lp_labels"
  top: "lp_loss"
  include: { phase: TRAIN }
}
layer {
  name: "softmax_feature"
  type: "Softmax"
  bottom: "features_fc8"
  top: "features_fc8s"
  include: { phase: TRAIN }
}
layer {
  name: "out_product"
  type: "OuterProduct"
  bottom: "features_fc8s"
  bottom: "bottleneck"
  top: "all_product"
  include: { phase: TRAIN }
}
layer {
  name: "grl"
  type: "GradientScaler"
  bottom: "all_product"
  top: "grl"
  gradient_scaler_param {
    lower_bound: 0.0
    upper_bound: 1.0
    alpha: 10.0
    max_iter: 10000
    threshold_iter: 0
  }
  include: { phase: TRAIN }
}
layer {
  name: "slice_grl"
  type: "Slice"
  bottom: "grl"
  top: "grl0"
  top: "grl1"
  top: "grl2"
  top: "grl3"
  top: "grl4"
  top: "grl5"
  top: "grl6"
  top: "grl7"
  top: "grl8"
  top: "grl9"
  top: "grl10"
  top: "grl11"
  top: "grl12"
  top: "grl13"
  top: "grl14"
  top: "grl15"
  top: "grl16"
  top: "grl17"
  top: "grl18"
  top: "grl19"
  top: "grl20"
  top: "grl21"
  top: "grl22"
  top: "grl23"
  top: "grl24"
  top: "grl25"
  top: "grl26"
  top: "grl27"
  top: "grl28"
  top: "grl29"
  top: "grl30"
  top: "grl31"
  top: "grl32"
  top: "grl33"
  top: "grl34"
  top: "grl35"
  top: "grl36"
  top: "grl37"
  top: "grl38"
  top: "grl39"
  top: "grl40"
  top: "grl41"
  top: "grl42"
  top: "grl43"
  top: "grl44"
  top: "grl45"
  top: "grl46"
  top: "grl47"
  top: "grl48"
  top: "grl49"
  top: "grl50"
  top: "grl51"
  top: "grl52"
  top: "grl53"
  top: "grl54"
  top: "grl55"
  top: "grl56"
  top: "grl57"
  top: "grl58"
  top: "grl59"
  top: "grl60"
  top: "grl61"
  top: "grl62"
  top: "grl63"
  top: "grl64"
  top: "grl65"
  top: "grl66"
  top: "grl67"
  top: "grl68"
  top: "grl69"
  top: "grl70"
  top: "grl71"
  top: "grl72"
  top: "grl73"
  top: "grl74"
  top: "grl75"
  top: "grl76"
  top: "grl77"
  top: "grl78"
  top: "grl79"
  top: "grl80"
  top: "grl81"
  top: "grl82"
  top: "grl83"
  top: "grl84"
  top: "grl85"
  top: "grl86"
  top: "grl87"
  top: "grl88"
  top: "grl89"
  top: "grl90"
  top: "grl91"
  top: "grl92"
  top: "grl93"
  top: "grl94"
  top: "grl95"
  top: "grl96"
  top: "grl97"
  slice_param {
    slice_dim: 1
  }
  include: { phase: TRAIN }
}
layer {
  name: "dc_ip10"
  type: "InnerProduct"
  bottom: "grl0"
  top: "dc_ip10"
  param {
    #name: "ip1_1"
    lr_mult: 10
  }
  param {
    #name: "ip1_2"
    lr_mult: 20
  }
  inner_product_param {
    num_output: 1024
    weight_filler {
      type: "gaussian"
      std: 0.01
    }
    bias_filler {
      type: "constant"
    }
  }
  include: { phase: TRAIN }
}
layer {
  name: "dc_relu10"
  type: "ReLU"
  bottom: "dc_ip10"
  top: "dc_ip10"
  include: { phase: TRAIN }
}
layer {
  name: "dc_drop10"
  type: "Dropout"
  bottom: "dc_ip10"
  top: "dc_ip10"
  dropout_param {
    dropout_ratio: 0.5
  }
  include: { phase: TRAIN }
}
layer {
  name: "dc_ip20"
  type: "InnerProduct"
  bottom: "dc_ip10"
  top: "dc_ip20"
  param {
    #name: "ip2_1"
    lr_mult: 10
  }
  param {
    #name: "ip2_2"
    lr_mult: 20
  }
  inner_product_param {
    num_output: 1024
    weight_filler {
      type: "gaussian"
      std: 0.01
    }
    bias_filler {
      type: "constant"
    }
  }
  include: { phase: TRAIN }
}
layer {
  name: "dc_relu20"
  type: "ReLU"
  bottom: "dc_ip20"
  top: "dc_ip20"
  include: { phase: TRAIN }
}
layer {
  name: "dc_drop20"
  type: "Dropout"
  bottom: "dc_ip20"
  top: "dc_ip20"
  dropout_param {
    dropout_ratio: 0.5
  }
  include: { phase: TRAIN }
}
layer {
  name: "dc_ip30"
  type: "InnerProduct"
  bottom: "dc_ip20"
  top: "dc_ip30"
  param {
    lr_mult: 10
  }
  param {
    lr_mult: 20
  }
  inner_product_param {
    num_output: 1
    weight_filler {
      type: "gaussian"
      std: 0.3
    }
    bias_filler {
      type: "constant"
    }
  }
  include: { phase: TRAIN }
}
layer {
  name: "dc_loss0"
  type: "SigmoidCrossEntropyLoss"
  bottom: "dc_ip30"
  bottom: "dc_labels"
  top: "dc_loss0"
  loss_weight: 0.3
  include: { phase: TRAIN }
}
layer {
  name: "dc_ip11"
  type: "InnerProduct"
  bottom: "grl1"
  top: "dc_ip11"
  param {
    #name: "ip1_1"
    lr_mult: 10
  }
  param {
    #name: "ip1_2"
    lr_mult: 20
  }
  inner_product_param {
    num_output: 1024
    weight_filler {
      type: "gaussian"
      std: 0.01
    }
    bias_filler {
      type: "constant"
    }
  }
  include: { phase: TRAIN }
}
layer {
  name: "dc_relu11"
  type: "ReLU"
  bottom: "dc_ip11"
  top: "dc_ip11"
  include: { phase: TRAIN }
}
layer {
  name: "dc_drop11"
  type: "Dropout"
  bottom: "dc_ip11"
  top: "dc_ip11"
  dropout_param {
    dropout_ratio: 0.5
  }
  include: { phase: TRAIN }
}
layer {
  name: "dc_ip21"
  type: "InnerProduct"
  bottom: "dc_ip11"
  top: "dc_ip21"
  param {
    #name: "ip2_1"
    lr_mult: 10
  }
  param {
    #name: "ip2_2"
    lr_mult: 20
  }
  inner_product_param {
    num_output: 1024
    weight_filler {
      type: "gaussian"
      std: 0.01
    }
    bias_filler {
      type: "constant"
    }
  }
  include: { phase: TRAIN }
}
layer {
  name: "dc_relu21"
  type: "ReLU"
  bottom: "dc_ip21"
  top: "dc_ip21"
  include: { phase: TRAIN }
}
layer {
  name: "dc_drop21"
  type: "Dropout"
  bottom: "dc_ip21"
  top: "dc_ip21"
  dropout_param {
    dropout_ratio: 0.5
  }
  include: { phase: TRAIN }
}
layer {
  name: "dc_ip31"
  type: "InnerProduct"
  bottom: "dc_ip21"
  top: "dc_ip31"
  param {
    lr_mult: 10
  }
  param {
    lr_mult: 20
  }
  inner_product_param {
    num_output: 1
    weight_filler {
      type: "gaussian"
      std: 0.3
    }
    bias_filler {
      type: "constant"
    }
  }
  include: { phase: TRAIN }
}
layer {
  name: "dc_loss1"
  type: "SigmoidCrossEntropyLoss"
  bottom: "dc_ip31"
  bottom: "dc_labels"
  top: "dc_loss1"
  loss_weight: 0.3
  include: { phase: TRAIN }
}
layer {
  name: "dc_ip12"
  type: "InnerProduct"
  bottom: "grl2"
  top: "dc_ip12"
  param {
    #name: "ip1_1"
    lr_mult: 10
  }
  param {
    #name: "ip1_2"
    lr_mult: 20
  }
  inner_product_param {
    num_output: 1024
    weight_filler {
      type: "gaussian"
      std: 0.01
    }
    bias_filler {
      type: "constant"
    }
  }
  include: { phase: TRAIN }
}
layer {
  name: "dc_relu12"
  type: "ReLU"
  bottom: "dc_ip12"
  top: "dc_ip12"
  include: { phase: TRAIN }
}
layer {
  name: "dc_drop12"
  type: "Dropout"
  bottom: "dc_ip12"
  top: "dc_ip12"
  dropout_param {
    dropout_ratio: 0.5
  }
  include: { phase: TRAIN }
}
layer {
  name: "dc_ip22"
  type: "InnerProduct"
  bottom: "dc_ip12"
  top: "dc_ip22"
  param {
    #name: "ip2_1"
    lr_mult: 10
  }
  param {
    #name: "ip2_2"
    lr_mult: 20
  }
  inner_product_param {
    num_output: 1024
    weight_filler {
      type: "gaussian"
      std: 0.01
    }
    bias_filler {
      type: "constant"
    }
  }
  include: { phase: TRAIN }
}
layer {
  name: "dc_relu22"
  type: "ReLU"
  bottom: "dc_ip22"
  top: "dc_ip22"
  include: { phase: TRAIN }
}
layer {
  name: "dc_drop22"
  type: "Dropout"
  bottom: "dc_ip22"
  top: "dc_ip22"
  dropout_param {
    dropout_ratio: 0.5
  }
  include: { phase: TRAIN }
}
layer {
  name: "dc_ip32"
  type: "InnerProduct"
  bottom: "dc_ip22"
  top: "dc_ip32"
  param {
    lr_mult: 10
  }
  param {
    lr_mult: 20
  }
  inner_product_param {
    num_output: 1
    weight_filler {
      type: "gaussian"
      std: 0.3
    }
    bias_filler {
      type: "constant"
    }
  }
  include: { phase: TRAIN }
}
layer {
  name: "dc_loss2"
  type: "SigmoidCrossEntropyLoss"
  bottom: "dc_ip32"
  bottom: "dc_labels"
  top: "dc_loss2"
  loss_weight: 0.3
  include: { phase: TRAIN }
}
layer {
  name: "dc_ip13"
  type: "InnerProduct"
  bottom: "grl3"
  top: "dc_ip13"
  param {
    #name: "ip1_1"
    lr_mult: 10
  }
  param {
    #name: "ip1_2"
    lr_mult: 20
  }
  inner_product_param {
    num_output: 1024
    weight_filler {
      type: "gaussian"
      std: 0.01
    }
    bias_filler {
      type: "constant"
    }
  }
  include: { phase: TRAIN }
}
layer {
  name: "dc_relu13"
  type: "ReLU"
  bottom: "dc_ip13"
  top: "dc_ip13"
  include: { phase: TRAIN }
}
layer {
  name: "dc_drop13"
  type: "Dropout"
  bottom: "dc_ip13"
  top: "dc_ip13"
  dropout_param {
    dropout_ratio: 0.5
  }
  include: { phase: TRAIN }
}
layer {
  name: "dc_ip23"
  type: "InnerProduct"
  bottom: "dc_ip13"
  top: "dc_ip23"
  param {
    #name: "ip2_1"
    lr_mult: 10
  }
  param {
    #name: "ip2_2"
    lr_mult: 20
  }
  inner_product_param {
    num_output: 1024
    weight_filler {
      type: "gaussian"
      std: 0.01
    }
    bias_filler {
      type: "constant"
    }
  }
  include: { phase: TRAIN }
}
layer {
  name: "dc_relu23"
  type: "ReLU"
  bottom: "dc_ip23"
  top: "dc_ip23"
  include: { phase: TRAIN }
}
layer {
  name: "dc_drop23"
  type: "Dropout"
  bottom: "dc_ip23"
  top: "dc_ip23"
  dropout_param {
    dropout_ratio: 0.5
  }
  include: { phase: TRAIN }
}
layer {
  name: "dc_ip33"
  type: "InnerProduct"
  bottom: "dc_ip23"
  top: "dc_ip33"
  param {
    lr_mult: 10
  }
  param {
    lr_mult: 20
  }
  inner_product_param {
    num_output: 1
    weight_filler {
      type: "gaussian"
      std: 0.3
    }
    bias_filler {
      type: "constant"
    }
  }
  include: { phase: TRAIN }
}
layer {
  name: "dc_loss3"
  type: "SigmoidCrossEntropyLoss"
  bottom: "dc_ip33"
  bottom: "dc_labels"
  top: "dc_loss3"
  loss_weight: 0.3
  include: { phase: TRAIN }
}
layer {
  name: "dc_ip14"
  type: "InnerProduct"
  bottom: "grl4"
  top: "dc_ip14"
  param {
    #name: "ip1_1"
    lr_mult: 10
  }
  param {
    #name: "ip1_2"
    lr_mult: 20
  }
  inner_product_param {
    num_output: 1024
    weight_filler {
      type: "gaussian"
      std: 0.01
    }
    bias_filler {
      type: "constant"
    }
  }
  include: { phase: TRAIN }
}
layer {
  name: "dc_relu14"
  type: "ReLU"
  bottom: "dc_ip14"
  top: "dc_ip14"
  include: { phase: TRAIN }
}
layer {
  name: "dc_drop14"
  type: "Dropout"
  bottom: "dc_ip14"
  top: "dc_ip14"
  dropout_param {
    dropout_ratio: 0.5
  }
  include: { phase: TRAIN }
}
layer {
  name: "dc_ip24"
  type: "InnerProduct"
  bottom: "dc_ip14"
  top: "dc_ip24"
  param {
    #name: "ip2_1"
    lr_mult: 10
  }
  param {
    #name: "ip2_2"
    lr_mult: 20
  }
  inner_product_param {
    num_output: 1024
    weight_filler {
      type: "gaussian"
      std: 0.01
    }
    bias_filler {
      type: "constant"
    }
  }
  include: { phase: TRAIN }
}
layer {
  name: "dc_relu24"
  type: "ReLU"
  bottom: "dc_ip24"
  top: "dc_ip24"
  include: { phase: TRAIN }
}
layer {
  name: "dc_drop24"
  type: "Dropout"
  bottom: "dc_ip24"
  top: "dc_ip24"
  dropout_param {
    dropout_ratio: 0.5
  }
  include: { phase: TRAIN }
}
layer {
  name: "dc_ip34"
  type: "InnerProduct"
  bottom: "dc_ip24"
  top: "dc_ip34"
  param {
    lr_mult: 10
  }
  param {
    lr_mult: 20
  }
  inner_product_param {
    num_output: 1
    weight_filler {
      type: "gaussian"
      std: 0.3
    }
    bias_filler {
      type: "constant"
    }
  }
  include: { phase: TRAIN }
}
layer {
  name: "dc_loss4"
  type: "SigmoidCrossEntropyLoss"
  bottom: "dc_ip34"
  bottom: "dc_labels"
  top: "dc_loss4"
  loss_weight: 0.3
  include: { phase: TRAIN }
}
layer {
  name: "dc_ip15"
  type: "InnerProduct"
  bottom: "grl5"
  top: "dc_ip15"
  param {
    #name: "ip1_1"
    lr_mult: 10
  }
  param {
    #name: "ip1_2"
    lr_mult: 20
  }
  inner_product_param {
    num_output: 1024
    weight_filler {
      type: "gaussian"
      std: 0.01
    }
    bias_filler {
      type: "constant"
    }
  }
  include: { phase: TRAIN }
}
layer {
  name: "dc_relu15"
  type: "ReLU"
  bottom: "dc_ip15"
  top: "dc_ip15"
  include: { phase: TRAIN }
}
layer {
  name: "dc_drop15"
  type: "Dropout"
  bottom: "dc_ip15"
  top: "dc_ip15"
  dropout_param {
    dropout_ratio: 0.5
  }
  include: { phase: TRAIN }
}
layer {
  name: "dc_ip25"
  type: "InnerProduct"
  bottom: "dc_ip15"
  top: "dc_ip25"
  param {
    #name: "ip2_1"
    lr_mult: 10
  }
  param {
    #name: "ip2_2"
    lr_mult: 20
  }
  inner_product_param {
    num_output: 1024
    weight_filler {
      type: "gaussian"
      std: 0.01
    }
    bias_filler {
      type: "constant"
    }
  }
  include: { phase: TRAIN }
}
layer {
  name: "dc_relu25"
  type: "ReLU"
  bottom: "dc_ip25"
  top: "dc_ip25"
  include: { phase: TRAIN }
}
layer {
  name: "dc_drop25"
  type: "Dropout"
  bottom: "dc_ip25"
  top: "dc_ip25"
  dropout_param {
    dropout_ratio: 0.5
  }
  include: { phase: TRAIN }
}
layer {
  name: "dc_ip35"
  type: "InnerProduct"
  bottom: "dc_ip25"
  top: "dc_ip35"
  param {
    lr_mult: 10
  }
  param {
    lr_mult: 20
  }
  inner_product_param {
    num_output: 1
    weight_filler {
      type: "gaussian"
      std: 0.3
    }
    bias_filler {
      type: "constant"
    }
  }
  include: { phase: TRAIN }
}
layer {
  name: "dc_loss5"
  type: "SigmoidCrossEntropyLoss"
  bottom: "dc_ip35"
  bottom: "dc_labels"
  top: "dc_loss5"
  loss_weight: 0.3
  include: { phase: TRAIN }
}
layer {
  name: "dc_ip16"
  type: "InnerProduct"
  bottom: "grl6"
  top: "dc_ip16"
  param {
    #name: "ip1_1"
    lr_mult: 10
  }
  param {
    #name: "ip1_2"
    lr_mult: 20
  }
  inner_product_param {
    num_output: 1024
    weight_filler {
      type: "gaussian"
      std: 0.01
    }
    bias_filler {
      type: "constant"
    }
  }
  include: { phase: TRAIN }
}
layer {
  name: "dc_relu16"
  type: "ReLU"
  bottom: "dc_ip16"
  top: "dc_ip16"
  include: { phase: TRAIN }
}
layer {
  name: "dc_drop16"
  type: "Dropout"
  bottom: "dc_ip16"
  top: "dc_ip16"
  dropout_param {
    dropout_ratio: 0.5
  }
  include: { phase: TRAIN }
}
layer {
  name: "dc_ip26"
  type: "InnerProduct"
  bottom: "dc_ip16"
  top: "dc_ip26"
  param {
    #name: "ip2_1"
    lr_mult: 10
  }
  param {
    #name: "ip2_2"
    lr_mult: 20
  }
  inner_product_param {
    num_output: 1024
    weight_filler {
      type: "gaussian"
      std: 0.01
    }
    bias_filler {
      type: "constant"
    }
  }
  include: { phase: TRAIN }
}
layer {
  name: "dc_relu26"
  type: "ReLU"
  bottom: "dc_ip26"
  top: "dc_ip26"
  include: { phase: TRAIN }
}
layer {
  name: "dc_drop26"
  type: "Dropout"
  bottom: "dc_ip26"
  top: "dc_ip26"
  dropout_param {
    dropout_ratio: 0.5
  }
  include: { phase: TRAIN }
}
layer {
  name: "dc_ip36"
  type: "InnerProduct"
  bottom: "dc_ip26"
  top: "dc_ip36"
  param {
    lr_mult: 10
  }
  param {
    lr_mult: 20
  }
  inner_product_param {
    num_output: 1
    weight_filler {
      type: "gaussian"
      std: 0.3
    }
    bias_filler {
      type: "constant"
    }
  }
  include: { phase: TRAIN }
}
layer {
  name: "dc_loss6"
  type: "SigmoidCrossEntropyLoss"
  bottom: "dc_ip36"
  bottom: "dc_labels"
  top: "dc_loss6"
  loss_weight: 0.3
  include: { phase: TRAIN }
}
layer {
  name: "dc_ip17"
  type: "InnerProduct"
  bottom: "grl7"
  top: "dc_ip17"
  param {
    #name: "ip1_1"
    lr_mult: 10
  }
  param {
    #name: "ip1_2"
    lr_mult: 20
  }
  inner_product_param {
    num_output: 1024
    weight_filler {
      type: "gaussian"
      std: 0.01
    }
    bias_filler {
      type: "constant"
    }
  }
  include: { phase: TRAIN }
}
layer {
  name: "dc_relu17"
  type: "ReLU"
  bottom: "dc_ip17"
  top: "dc_ip17"
  include: { phase: TRAIN }
}
layer {
  name: "dc_drop17"
  type: "Dropout"
  bottom: "dc_ip17"
  top: "dc_ip17"
  dropout_param {
    dropout_ratio: 0.5
  }
  include: { phase: TRAIN }
}
layer {
  name: "dc_ip27"
  type: "InnerProduct"
  bottom: "dc_ip17"
  top: "dc_ip27"
  param {
    #name: "ip2_1"
    lr_mult: 10
  }
  param {
    #name: "ip2_2"
    lr_mult: 20
  }
  inner_product_param {
    num_output: 1024
    weight_filler {
      type: "gaussian"
      std: 0.01
    }
    bias_filler {
      type: "constant"
    }
  }
  include: { phase: TRAIN }
}
layer {
  name: "dc_relu27"
  type: "ReLU"
  bottom: "dc_ip27"
  top: "dc_ip27"
  include: { phase: TRAIN }
}
layer {
  name: "dc_drop27"
  type: "Dropout"
  bottom: "dc_ip27"
  top: "dc_ip27"
  dropout_param {
    dropout_ratio: 0.5
  }
  include: { phase: TRAIN }
}
layer {
  name: "dc_ip37"
  type: "InnerProduct"
  bottom: "dc_ip27"
  top: "dc_ip37"
  param {
    lr_mult: 10
  }
  param {
    lr_mult: 20
  }
  inner_product_param {
    num_output: 1
    weight_filler {
      type: "gaussian"
      std: 0.3
    }
    bias_filler {
      type: "constant"
    }
  }
  include: { phase: TRAIN }
}
layer {
  name: "dc_loss7"
  type: "SigmoidCrossEntropyLoss"
  bottom: "dc_ip37"
  bottom: "dc_labels"
  top: "dc_loss7"
  loss_weight: 0.3
  include: { phase: TRAIN }
}
layer {
  name: "dc_ip18"
  type: "InnerProduct"
  bottom: "grl8"
  top: "dc_ip18"
  param {
    #name: "ip1_1"
    lr_mult: 10
  }
  param {
    #name: "ip1_2"
    lr_mult: 20
  }
  inner_product_param {
    num_output: 1024
    weight_filler {
      type: "gaussian"
      std: 0.01
    }
    bias_filler {
      type: "constant"
    }
  }
  include: { phase: TRAIN }
}
layer {
  name: "dc_relu18"
  type: "ReLU"
  bottom: "dc_ip18"
  top: "dc_ip18"
  include: { phase: TRAIN }
}
layer {
  name: "dc_drop18"
  type: "Dropout"
  bottom: "dc_ip18"
  top: "dc_ip18"
  dropout_param {
    dropout_ratio: 0.5
  }
  include: { phase: TRAIN }
}
layer {
  name: "dc_ip28"
  type: "InnerProduct"
  bottom: "dc_ip18"
  top: "dc_ip28"
  param {
    #name: "ip2_1"
    lr_mult: 10
  }
  param {
    #name: "ip2_2"
    lr_mult: 20
  }
  inner_product_param {
    num_output: 1024
    weight_filler {
      type: "gaussian"
      std: 0.01
    }
    bias_filler {
      type: "constant"
    }
  }
  include: { phase: TRAIN }
}
layer {
  name: "dc_relu28"
  type: "ReLU"
  bottom: "dc_ip28"
  top: "dc_ip28"
  include: { phase: TRAIN }
}
layer {
  name: "dc_drop28"
  type: "Dropout"
  bottom: "dc_ip28"
  top: "dc_ip28"
  dropout_param {
    dropout_ratio: 0.5
  }
  include: { phase: TRAIN }
}
layer {
  name: "dc_ip38"
  type: "InnerProduct"
  bottom: "dc_ip28"
  top: "dc_ip38"
  param {
    lr_mult: 10
  }
  param {
    lr_mult: 20
  }
  inner_product_param {
    num_output: 1
    weight_filler {
      type: "gaussian"
      std: 0.3
    }
    bias_filler {
      type: "constant"
    }
  }
  include: { phase: TRAIN }
}
layer {
  name: "dc_loss8"
  type: "SigmoidCrossEntropyLoss"
  bottom: "dc_ip38"
  bottom: "dc_labels"
  top: "dc_loss8"
  loss_weight: 0.3
  include: { phase: TRAIN }
}
layer {
  name: "dc_ip19"
  type: "InnerProduct"
  bottom: "grl9"
  top: "dc_ip19"
  param {
    #name: "ip1_1"
    lr_mult: 10
  }
  param {
    #name: "ip1_2"
    lr_mult: 20
  }
  inner_product_param {
    num_output: 1024
    weight_filler {
      type: "gaussian"
      std: 0.01
    }
    bias_filler {
      type: "constant"
    }
  }
  include: { phase: TRAIN }
}
layer {
  name: "dc_relu19"
  type: "ReLU"
  bottom: "dc_ip19"
  top: "dc_ip19"
  include: { phase: TRAIN }
}
layer {
  name: "dc_drop19"
  type: "Dropout"
  bottom: "dc_ip19"
  top: "dc_ip19"
  dropout_param {
    dropout_ratio: 0.5
  }
  include: { phase: TRAIN }
}
layer {
  name: "dc_ip29"
  type: "InnerProduct"
  bottom: "dc_ip19"
  top: "dc_ip29"
  param {
    #name: "ip2_1"
    lr_mult: 10
  }
  param {
    #name: "ip2_2"
    lr_mult: 20
  }
  inner_product_param {
    num_output: 1024
    weight_filler {
      type: "gaussian"
      std: 0.01
    }
    bias_filler {
      type: "constant"
    }
  }
  include: { phase: TRAIN }
}
layer {
  name: "dc_relu29"
  type: "ReLU"
  bottom: "dc_ip29"
  top: "dc_ip29"
  include: { phase: TRAIN }
}
layer {
  name: "dc_drop29"
  type: "Dropout"
  bottom: "dc_ip29"
  top: "dc_ip29"
  dropout_param {
    dropout_ratio: 0.5
  }
  include: { phase: TRAIN }
}
layer {
  name: "dc_ip39"
  type: "InnerProduct"
  bottom: "dc_ip29"
  top: "dc_ip39"
  param {
    lr_mult: 10
  }
  param {
    lr_mult: 20
  }
  inner_product_param {
    num_output: 1
    weight_filler {
      type: "gaussian"
      std: 0.3
    }
    bias_filler {
      type: "constant"
    }
  }
  include: { phase: TRAIN }
}
layer {
  name: "dc_loss9"
  type: "SigmoidCrossEntropyLoss"
  bottom: "dc_ip39"
  bottom: "dc_labels"
  top: "dc_loss9"
  loss_weight: 0.3
  include: { phase: TRAIN }
}
layer {
  name: "dc_ip110"
  type: "InnerProduct"
  bottom: "grl10"
  top: "dc_ip110"
  param {
    #name: "ip1_1"
    lr_mult: 10
  }
  param {
    #name: "ip1_2"
    lr_mult: 20
  }
  inner_product_param {
    num_output: 1024
    weight_filler {
      type: "gaussian"
      std: 0.01
    }
    bias_filler {
      type: "constant"
    }
  }
  include: { phase: TRAIN }
}
layer {
  name: "dc_relu110"
  type: "ReLU"
  bottom: "dc_ip110"
  top: "dc_ip110"
  include: { phase: TRAIN }
}
layer {
  name: "dc_drop110"
  type: "Dropout"
  bottom: "dc_ip110"
  top: "dc_ip110"
  dropout_param {
    dropout_ratio: 0.5
  }
  include: { phase: TRAIN }
}
layer {
  name: "dc_ip210"
  type: "InnerProduct"
  bottom: "dc_ip110"
  top: "dc_ip210"
  param {
    #name: "ip2_1"
    lr_mult: 10
  }
  param {
    #name: "ip2_2"
    lr_mult: 20
  }
  inner_product_param {
    num_output: 1024
    weight_filler {
      type: "gaussian"
      std: 0.01
    }
    bias_filler {
      type: "constant"
    }
  }
  include: { phase: TRAIN }
}
layer {
  name: "dc_relu210"
  type: "ReLU"
  bottom: "dc_ip210"
  top: "dc_ip210"
  include: { phase: TRAIN }
}
layer {
  name: "dc_drop210"
  type: "Dropout"
  bottom: "dc_ip210"
  top: "dc_ip210"
  dropout_param {
    dropout_ratio: 0.5
  }
  include: { phase: TRAIN }
}
layer {
  name: "dc_ip310"
  type: "InnerProduct"
  bottom: "dc_ip210"
  top: "dc_ip310"
  param {
    lr_mult: 10
  }
  param {
    lr_mult: 20
  }
  inner_product_param {
    num_output: 1
    weight_filler {
      type: "gaussian"
      std: 0.3
    }
    bias_filler {
      type: "constant"
    }
  }
  include: { phase: TRAIN }
}
layer {
  name: "dc_loss10"
  type: "SigmoidCrossEntropyLoss"
  bottom: "dc_ip310"
  bottom: "dc_labels"
  top: "dc_loss10"
  loss_weight: 0.3
  include: { phase: TRAIN }
}
layer {
  name: "dc_ip111"
  type: "InnerProduct"
  bottom: "grl11"
  top: "dc_ip111"
  param {
    #name: "ip1_1"
    lr_mult: 10
  }
  param {
    #name: "ip1_2"
    lr_mult: 20
  }
  inner_product_param {
    num_output: 1024
    weight_filler {
      type: "gaussian"
      std: 0.01
    }
    bias_filler {
      type: "constant"
    }
  }
  include: { phase: TRAIN }
}
layer {
  name: "dc_relu111"
  type: "ReLU"
  bottom: "dc_ip111"
  top: "dc_ip111"
  include: { phase: TRAIN }
}
layer {
  name: "dc_drop111"
  type: "Dropout"
  bottom: "dc_ip111"
  top: "dc_ip111"
  dropout_param {
    dropout_ratio: 0.5
  }
  include: { phase: TRAIN }
}
layer {
  name: "dc_ip211"
  type: "InnerProduct"
  bottom: "dc_ip111"
  top: "dc_ip211"
  param {
    #name: "ip2_1"
    lr_mult: 10
  }
  param {
    #name: "ip2_2"
    lr_mult: 20
  }
  inner_product_param {
    num_output: 1024
    weight_filler {
      type: "gaussian"
      std: 0.01
    }
    bias_filler {
      type: "constant"
    }
  }
  include: { phase: TRAIN }
}
layer {
  name: "dc_relu211"
  type: "ReLU"
  bottom: "dc_ip211"
  top: "dc_ip211"
  include: { phase: TRAIN }
}
layer {
  name: "dc_drop211"
  type: "Dropout"
  bottom: "dc_ip211"
  top: "dc_ip211"
  dropout_param {
    dropout_ratio: 0.5
  }
  include: { phase: TRAIN }
}
layer {
  name: "dc_ip311"
  type: "InnerProduct"
  bottom: "dc_ip211"
  top: "dc_ip311"
  param {
    lr_mult: 10
  }
  param {
    lr_mult: 20
  }
  inner_product_param {
    num_output: 1
    weight_filler {
      type: "gaussian"
      std: 0.3
    }
    bias_filler {
      type: "constant"
    }
  }
  include: { phase: TRAIN }
}
layer {
  name: "dc_loss11"
  type: "SigmoidCrossEntropyLoss"
  bottom: "dc_ip311"
  bottom: "dc_labels"
  top: "dc_loss11"
  loss_weight: 0.3
  include: { phase: TRAIN }
}
layer {
  name: "dc_ip112"
  type: "InnerProduct"
  bottom: "grl12"
  top: "dc_ip112"
  param {
    #name: "ip1_1"
    lr_mult: 10
  }
  param {
    #name: "ip1_2"
    lr_mult: 20
  }
  inner_product_param {
    num_output: 1024
    weight_filler {
      type: "gaussian"
      std: 0.01
    }
    bias_filler {
      type: "constant"
    }
  }
  include: { phase: TRAIN }
}
layer {
  name: "dc_relu112"
  type: "ReLU"
  bottom: "dc_ip112"
  top: "dc_ip112"
  include: { phase: TRAIN }
}
layer {
  name: "dc_drop112"
  type: "Dropout"
  bottom: "dc_ip112"
  top: "dc_ip112"
  dropout_param {
    dropout_ratio: 0.5
  }
  include: { phase: TRAIN }
}
layer {
  name: "dc_ip212"
  type: "InnerProduct"
  bottom: "dc_ip112"
  top: "dc_ip212"
  param {
    #name: "ip2_1"
    lr_mult: 10
  }
  param {
    #name: "ip2_2"
    lr_mult: 20
  }
  inner_product_param {
    num_output: 1024
    weight_filler {
      type: "gaussian"
      std: 0.01
    }
    bias_filler {
      type: "constant"
    }
  }
  include: { phase: TRAIN }
}
layer {
  name: "dc_relu212"
  type: "ReLU"
  bottom: "dc_ip212"
  top: "dc_ip212"
  include: { phase: TRAIN }
}
layer {
  name: "dc_drop212"
  type: "Dropout"
  bottom: "dc_ip212"
  top: "dc_ip212"
  dropout_param {
    dropout_ratio: 0.5
  }
  include: { phase: TRAIN }
}
layer {
  name: "dc_ip312"
  type: "InnerProduct"
  bottom: "dc_ip212"
  top: "dc_ip312"
  param {
    lr_mult: 10
  }
  param {
    lr_mult: 20
  }
  inner_product_param {
    num_output: 1
    weight_filler {
      type: "gaussian"
      std: 0.3
    }
    bias_filler {
      type: "constant"
    }
  }
  include: { phase: TRAIN }
}
layer {
  name: "dc_loss12"
  type: "SigmoidCrossEntropyLoss"
  bottom: "dc_ip312"
  bottom: "dc_labels"
  top: "dc_loss12"
  loss_weight: 0.3
  include: { phase: TRAIN }
}
layer {
  name: "dc_ip113"
  type: "InnerProduct"
  bottom: "grl13"
  top: "dc_ip113"
  param {
    #name: "ip1_1"
    lr_mult: 10
  }
  param {
    #name: "ip1_2"
    lr_mult: 20
  }
  inner_product_param {
    num_output: 1024
    weight_filler {
      type: "gaussian"
      std: 0.01
    }
    bias_filler {
      type: "constant"
    }
  }
  include: { phase: TRAIN }
}
layer {
  name: "dc_relu113"
  type: "ReLU"
  bottom: "dc_ip113"
  top: "dc_ip113"
  include: { phase: TRAIN }
}
layer {
  name: "dc_drop113"
  type: "Dropout"
  bottom: "dc_ip113"
  top: "dc_ip113"
  dropout_param {
    dropout_ratio: 0.5
  }
  include: { phase: TRAIN }
}
layer {
  name: "dc_ip213"
  type: "InnerProduct"
  bottom: "dc_ip113"
  top: "dc_ip213"
  param {
    #name: "ip2_1"
    lr_mult: 10
  }
  param {
    #name: "ip2_2"
    lr_mult: 20
  }
  inner_product_param {
    num_output: 1024
    weight_filler {
      type: "gaussian"
      std: 0.01
    }
    bias_filler {
      type: "constant"
    }
  }
  include: { phase: TRAIN }
}
layer {
  name: "dc_relu213"
  type: "ReLU"
  bottom: "dc_ip213"
  top: "dc_ip213"
  include: { phase: TRAIN }
}
layer {
  name: "dc_drop213"
  type: "Dropout"
  bottom: "dc_ip213"
  top: "dc_ip213"
  dropout_param {
    dropout_ratio: 0.5
  }
  include: { phase: TRAIN }
}
layer {
  name: "dc_ip313"
  type: "InnerProduct"
  bottom: "dc_ip213"
  top: "dc_ip313"
  param {
    lr_mult: 10
  }
  param {
    lr_mult: 20
  }
  inner_product_param {
    num_output: 1
    weight_filler {
      type: "gaussian"
      std: 0.3
    }
    bias_filler {
      type: "constant"
    }
  }
  include: { phase: TRAIN }
}
layer {
  name: "dc_loss13"
  type: "SigmoidCrossEntropyLoss"
  bottom: "dc_ip313"
  bottom: "dc_labels"
  top: "dc_loss13"
  loss_weight: 0.3
  include: { phase: TRAIN }
}
layer {
  name: "dc_ip114"
  type: "InnerProduct"
  bottom: "grl14"
  top: "dc_ip114"
  param {
    #name: "ip1_1"
    lr_mult: 10
  }
  param {
    #name: "ip1_2"
    lr_mult: 20
  }
  inner_product_param {
    num_output: 1024
    weight_filler {
      type: "gaussian"
      std: 0.01
    }
    bias_filler {
      type: "constant"
    }
  }
  include: { phase: TRAIN }
}
layer {
  name: "dc_relu114"
  type: "ReLU"
  bottom: "dc_ip114"
  top: "dc_ip114"
  include: { phase: TRAIN }
}
layer {
  name: "dc_drop114"
  type: "Dropout"
  bottom: "dc_ip114"
  top: "dc_ip114"
  dropout_param {
    dropout_ratio: 0.5
  }
  include: { phase: TRAIN }
}
layer {
  name: "dc_ip214"
  type: "InnerProduct"
  bottom: "dc_ip114"
  top: "dc_ip214"
  param {
    #name: "ip2_1"
    lr_mult: 10
  }
  param {
    #name: "ip2_2"
    lr_mult: 20
  }
  inner_product_param {
    num_output: 1024
    weight_filler {
      type: "gaussian"
      std: 0.01
    }
    bias_filler {
      type: "constant"
    }
  }
  include: { phase: TRAIN }
}
layer {
  name: "dc_relu214"
  type: "ReLU"
  bottom: "dc_ip214"
  top: "dc_ip214"
  include: { phase: TRAIN }
}
layer {
  name: "dc_drop214"
  type: "Dropout"
  bottom: "dc_ip214"
  top: "dc_ip214"
  dropout_param {
    dropout_ratio: 0.5
  }
  include: { phase: TRAIN }
}
layer {
  name: "dc_ip314"
  type: "InnerProduct"
  bottom: "dc_ip214"
  top: "dc_ip314"
  param {
    lr_mult: 10
  }
  param {
    lr_mult: 20
  }
  inner_product_param {
    num_output: 1
    weight_filler {
      type: "gaussian"
      std: 0.3
    }
    bias_filler {
      type: "constant"
    }
  }
  include: { phase: TRAIN }
}
layer {
  name: "dc_loss14"
  type: "SigmoidCrossEntropyLoss"
  bottom: "dc_ip314"
  bottom: "dc_labels"
  top: "dc_loss14"
  loss_weight: 0.3
  include: { phase: TRAIN }
}
layer {
  name: "dc_ip115"
  type: "InnerProduct"
  bottom: "grl15"
  top: "dc_ip115"
  param {
    #name: "ip1_1"
    lr_mult: 10
  }
  param {
    #name: "ip1_2"
    lr_mult: 20
  }
  inner_product_param {
    num_output: 1024
    weight_filler {
      type: "gaussian"
      std: 0.01
    }
    bias_filler {
      type: "constant"
    }
  }
  include: { phase: TRAIN }
}
layer {
  name: "dc_relu115"
  type: "ReLU"
  bottom: "dc_ip115"
  top: "dc_ip115"
  include: { phase: TRAIN }
}
layer {
  name: "dc_drop115"
  type: "Dropout"
  bottom: "dc_ip115"
  top: "dc_ip115"
  dropout_param {
    dropout_ratio: 0.5
  }
  include: { phase: TRAIN }
}
layer {
  name: "dc_ip215"
  type: "InnerProduct"
  bottom: "dc_ip115"
  top: "dc_ip215"
  param {
    #name: "ip2_1"
    lr_mult: 10
  }
  param {
    #name: "ip2_2"
    lr_mult: 20
  }
  inner_product_param {
    num_output: 1024
    weight_filler {
      type: "gaussian"
      std: 0.01
    }
    bias_filler {
      type: "constant"
    }
  }
  include: { phase: TRAIN }
}
layer {
  name: "dc_relu215"
  type: "ReLU"
  bottom: "dc_ip215"
  top: "dc_ip215"
  include: { phase: TRAIN }
}
layer {
  name: "dc_drop215"
  type: "Dropout"
  bottom: "dc_ip215"
  top: "dc_ip215"
  dropout_param {
    dropout_ratio: 0.5
  }
  include: { phase: TRAIN }
}
layer {
  name: "dc_ip315"
  type: "InnerProduct"
  bottom: "dc_ip215"
  top: "dc_ip315"
  param {
    lr_mult: 10
  }
  param {
    lr_mult: 20
  }
  inner_product_param {
    num_output: 1
    weight_filler {
      type: "gaussian"
      std: 0.3
    }
    bias_filler {
      type: "constant"
    }
  }
  include: { phase: TRAIN }
}
layer {
  name: "dc_loss15"
  type: "SigmoidCrossEntropyLoss"
  bottom: "dc_ip315"
  bottom: "dc_labels"
  top: "dc_loss15"
  loss_weight: 0.3
  include: { phase: TRAIN }
}
layer {
  name: "dc_ip116"
  type: "InnerProduct"
  bottom: "grl16"
  top: "dc_ip116"
  param {
    #name: "ip1_1"
    lr_mult: 10
  }
  param {
    #name: "ip1_2"
    lr_mult: 20
  }
  inner_product_param {
    num_output: 1024
    weight_filler {
      type: "gaussian"
      std: 0.01
    }
    bias_filler {
      type: "constant"
    }
  }
  include: { phase: TRAIN }
}
layer {
  name: "dc_relu116"
  type: "ReLU"
  bottom: "dc_ip116"
  top: "dc_ip116"
  include: { phase: TRAIN }
}
layer {
  name: "dc_drop116"
  type: "Dropout"
  bottom: "dc_ip116"
  top: "dc_ip116"
  dropout_param {
    dropout_ratio: 0.5
  }
  include: { phase: TRAIN }
}
layer {
  name: "dc_ip216"
  type: "InnerProduct"
  bottom: "dc_ip116"
  top: "dc_ip216"
  param {
    #name: "ip2_1"
    lr_mult: 10
  }
  param {
    #name: "ip2_2"
    lr_mult: 20
  }
  inner_product_param {
    num_output: 1024
    weight_filler {
      type: "gaussian"
      std: 0.01
    }
    bias_filler {
      type: "constant"
    }
  }
  include: { phase: TRAIN }
}
layer {
  name: "dc_relu216"
  type: "ReLU"
  bottom: "dc_ip216"
  top: "dc_ip216"
  include: { phase: TRAIN }
}
layer {
  name: "dc_drop216"
  type: "Dropout"
  bottom: "dc_ip216"
  top: "dc_ip216"
  dropout_param {
    dropout_ratio: 0.5
  }
  include: { phase: TRAIN }
}
layer {
  name: "dc_ip316"
  type: "InnerProduct"
  bottom: "dc_ip216"
  top: "dc_ip316"
  param {
    lr_mult: 10
  }
  param {
    lr_mult: 20
  }
  inner_product_param {
    num_output: 1
    weight_filler {
      type: "gaussian"
      std: 0.3
    }
    bias_filler {
      type: "constant"
    }
  }
  include: { phase: TRAIN }
}
layer {
  name: "dc_loss16"
  type: "SigmoidCrossEntropyLoss"
  bottom: "dc_ip316"
  bottom: "dc_labels"
  top: "dc_loss16"
  loss_weight: 0.3
  include: { phase: TRAIN }
}
layer {
  name: "dc_ip117"
  type: "InnerProduct"
  bottom: "grl17"
  top: "dc_ip117"
  param {
    #name: "ip1_1"
    lr_mult: 10
  }
  param {
    #name: "ip1_2"
    lr_mult: 20
  }
  inner_product_param {
    num_output: 1024
    weight_filler {
      type: "gaussian"
      std: 0.01
    }
    bias_filler {
      type: "constant"
    }
  }
  include: { phase: TRAIN }
}
layer {
  name: "dc_relu117"
  type: "ReLU"
  bottom: "dc_ip117"
  top: "dc_ip117"
  include: { phase: TRAIN }
}
layer {
  name: "dc_drop117"
  type: "Dropout"
  bottom: "dc_ip117"
  top: "dc_ip117"
  dropout_param {
    dropout_ratio: 0.5
  }
  include: { phase: TRAIN }
}
layer {
  name: "dc_ip217"
  type: "InnerProduct"
  bottom: "dc_ip117"
  top: "dc_ip217"
  param {
    #name: "ip2_1"
    lr_mult: 10
  }
  param {
    #name: "ip2_2"
    lr_mult: 20
  }
  inner_product_param {
    num_output: 1024
    weight_filler {
      type: "gaussian"
      std: 0.01
    }
    bias_filler {
      type: "constant"
    }
  }
  include: { phase: TRAIN }
}
layer {
  name: "dc_relu217"
  type: "ReLU"
  bottom: "dc_ip217"
  top: "dc_ip217"
  include: { phase: TRAIN }
}
layer {
  name: "dc_drop217"
  type: "Dropout"
  bottom: "dc_ip217"
  top: "dc_ip217"
  dropout_param {
    dropout_ratio: 0.5
  }
  include: { phase: TRAIN }
}
layer {
  name: "dc_ip317"
  type: "InnerProduct"
  bottom: "dc_ip217"
  top: "dc_ip317"
  param {
    lr_mult: 10
  }
  param {
    lr_mult: 20
  }
  inner_product_param {
    num_output: 1
    weight_filler {
      type: "gaussian"
      std: 0.3
    }
    bias_filler {
      type: "constant"
    }
  }
  include: { phase: TRAIN }
}
layer {
  name: "dc_loss17"
  type: "SigmoidCrossEntropyLoss"
  bottom: "dc_ip317"
  bottom: "dc_labels"
  top: "dc_loss17"
  loss_weight: 0.3
  include: { phase: TRAIN }
}
layer {
  name: "dc_ip118"
  type: "InnerProduct"
  bottom: "grl18"
  top: "dc_ip118"
  param {
    #name: "ip1_1"
    lr_mult: 10
  }
  param {
    #name: "ip1_2"
    lr_mult: 20
  }
  inner_product_param {
    num_output: 1024
    weight_filler {
      type: "gaussian"
      std: 0.01
    }
    bias_filler {
      type: "constant"
    }
  }
  include: { phase: TRAIN }
}
layer {
  name: "dc_relu118"
  type: "ReLU"
  bottom: "dc_ip118"
  top: "dc_ip118"
  include: { phase: TRAIN }
}
layer {
  name: "dc_drop118"
  type: "Dropout"
  bottom: "dc_ip118"
  top: "dc_ip118"
  dropout_param {
    dropout_ratio: 0.5
  }
  include: { phase: TRAIN }
}
layer {
  name: "dc_ip218"
  type: "InnerProduct"
  bottom: "dc_ip118"
  top: "dc_ip218"
  param {
    #name: "ip2_1"
    lr_mult: 10
  }
  param {
    #name: "ip2_2"
    lr_mult: 20
  }
  inner_product_param {
    num_output: 1024
    weight_filler {
      type: "gaussian"
      std: 0.01
    }
    bias_filler {
      type: "constant"
    }
  }
  include: { phase: TRAIN }
}
layer {
  name: "dc_relu218"
  type: "ReLU"
  bottom: "dc_ip218"
  top: "dc_ip218"
  include: { phase: TRAIN }
}
layer {
  name: "dc_drop218"
  type: "Dropout"
  bottom: "dc_ip218"
  top: "dc_ip218"
  dropout_param {
    dropout_ratio: 0.5
  }
  include: { phase: TRAIN }
}
layer {
  name: "dc_ip318"
  type: "InnerProduct"
  bottom: "dc_ip218"
  top: "dc_ip318"
  param {
    lr_mult: 10
  }
  param {
    lr_mult: 20
  }
  inner_product_param {
    num_output: 1
    weight_filler {
      type: "gaussian"
      std: 0.3
    }
    bias_filler {
      type: "constant"
    }
  }
  include: { phase: TRAIN }
}
layer {
  name: "dc_loss18"
  type: "SigmoidCrossEntropyLoss"
  bottom: "dc_ip318"
  bottom: "dc_labels"
  top: "dc_loss18"
  loss_weight: 0.3
  include: { phase: TRAIN }
}
layer {
  name: "dc_ip119"
  type: "InnerProduct"
  bottom: "grl19"
  top: "dc_ip119"
  param {
    #name: "ip1_1"
    lr_mult: 10
  }
  param {
    #name: "ip1_2"
    lr_mult: 20
  }
  inner_product_param {
    num_output: 1024
    weight_filler {
      type: "gaussian"
      std: 0.01
    }
    bias_filler {
      type: "constant"
    }
  }
  include: { phase: TRAIN }
}
layer {
  name: "dc_relu119"
  type: "ReLU"
  bottom: "dc_ip119"
  top: "dc_ip119"
  include: { phase: TRAIN }
}
layer {
  name: "dc_drop119"
  type: "Dropout"
  bottom: "dc_ip119"
  top: "dc_ip119"
  dropout_param {
    dropout_ratio: 0.5
  }
  include: { phase: TRAIN }
}
layer {
  name: "dc_ip219"
  type: "InnerProduct"
  bottom: "dc_ip119"
  top: "dc_ip219"
  param {
    #name: "ip2_1"
    lr_mult: 10
  }
  param {
    #name: "ip2_2"
    lr_mult: 20
  }
  inner_product_param {
    num_output: 1024
    weight_filler {
      type: "gaussian"
      std: 0.01
    }
    bias_filler {
      type: "constant"
    }
  }
  include: { phase: TRAIN }
}
layer {
  name: "dc_relu219"
  type: "ReLU"
  bottom: "dc_ip219"
  top: "dc_ip219"
  include: { phase: TRAIN }
}
layer {
  name: "dc_drop219"
  type: "Dropout"
  bottom: "dc_ip219"
  top: "dc_ip219"
  dropout_param {
    dropout_ratio: 0.5
  }
  include: { phase: TRAIN }
}
layer {
  name: "dc_ip319"
  type: "InnerProduct"
  bottom: "dc_ip219"
  top: "dc_ip319"
  param {
    lr_mult: 10
  }
  param {
    lr_mult: 20
  }
  inner_product_param {
    num_output: 1
    weight_filler {
      type: "gaussian"
      std: 0.3
    }
    bias_filler {
      type: "constant"
    }
  }
  include: { phase: TRAIN }
}
layer {
  name: "dc_loss19"
  type: "SigmoidCrossEntropyLoss"
  bottom: "dc_ip319"
  bottom: "dc_labels"
  top: "dc_loss19"
  loss_weight: 0.3
  include: { phase: TRAIN }
}
layer {
  name: "dc_ip120"
  type: "InnerProduct"
  bottom: "grl20"
  top: "dc_ip120"
  param {
    #name: "ip1_1"
    lr_mult: 10
  }
  param {
    #name: "ip1_2"
    lr_mult: 20
  }
  inner_product_param {
    num_output: 1024
    weight_filler {
      type: "gaussian"
      std: 0.01
    }
    bias_filler {
      type: "constant"
    }
  }
  include: { phase: TRAIN }
}
layer {
  name: "dc_relu120"
  type: "ReLU"
  bottom: "dc_ip120"
  top: "dc_ip120"
  include: { phase: TRAIN }
}
layer {
  name: "dc_drop120"
  type: "Dropout"
  bottom: "dc_ip120"
  top: "dc_ip120"
  dropout_param {
    dropout_ratio: 0.5
  }
  include: { phase: TRAIN }
}
layer {
  name: "dc_ip220"
  type: "InnerProduct"
  bottom: "dc_ip120"
  top: "dc_ip220"
  param {
    #name: "ip2_1"
    lr_mult: 10
  }
  param {
    #name: "ip2_2"
    lr_mult: 20
  }
  inner_product_param {
    num_output: 1024
    weight_filler {
      type: "gaussian"
      std: 0.01
    }
    bias_filler {
      type: "constant"
    }
  }
  include: { phase: TRAIN }
}
layer {
  name: "dc_relu220"
  type: "ReLU"
  bottom: "dc_ip220"
  top: "dc_ip220"
  include: { phase: TRAIN }
}
layer {
  name: "dc_drop220"
  type: "Dropout"
  bottom: "dc_ip220"
  top: "dc_ip220"
  dropout_param {
    dropout_ratio: 0.5
  }
  include: { phase: TRAIN }
}
layer {
  name: "dc_ip320"
  type: "InnerProduct"
  bottom: "dc_ip220"
  top: "dc_ip320"
  param {
    lr_mult: 10
  }
  param {
    lr_mult: 20
  }
  inner_product_param {
    num_output: 1
    weight_filler {
      type: "gaussian"
      std: 0.3
    }
    bias_filler {
      type: "constant"
    }
  }
  include: { phase: TRAIN }
}
layer {
  name: "dc_loss20"
  type: "SigmoidCrossEntropyLoss"
  bottom: "dc_ip320"
  bottom: "dc_labels"
  top: "dc_loss20"
  loss_weight: 0.3
  include: { phase: TRAIN }
}
layer {
  name: "dc_ip121"
  type: "InnerProduct"
  bottom: "grl21"
  top: "dc_ip121"
  param {
    #name: "ip1_1"
    lr_mult: 10
  }
  param {
    #name: "ip1_2"
    lr_mult: 20
  }
  inner_product_param {
    num_output: 1024
    weight_filler {
      type: "gaussian"
      std: 0.01
    }
    bias_filler {
      type: "constant"
    }
  }
  include: { phase: TRAIN }
}
layer {
  name: "dc_relu121"
  type: "ReLU"
  bottom: "dc_ip121"
  top: "dc_ip121"
  include: { phase: TRAIN }
}
layer {
  name: "dc_drop121"
  type: "Dropout"
  bottom: "dc_ip121"
  top: "dc_ip121"
  dropout_param {
    dropout_ratio: 0.5
  }
  include: { phase: TRAIN }
}
layer {
  name: "dc_ip221"
  type: "InnerProduct"
  bottom: "dc_ip121"
  top: "dc_ip221"
  param {
    #name: "ip2_1"
    lr_mult: 10
  }
  param {
    #name: "ip2_2"
    lr_mult: 20
  }
  inner_product_param {
    num_output: 1024
    weight_filler {
      type: "gaussian"
      std: 0.01
    }
    bias_filler {
      type: "constant"
    }
  }
  include: { phase: TRAIN }
}
layer {
  name: "dc_relu221"
  type: "ReLU"
  bottom: "dc_ip221"
  top: "dc_ip221"
  include: { phase: TRAIN }
}
layer {
  name: "dc_drop221"
  type: "Dropout"
  bottom: "dc_ip221"
  top: "dc_ip221"
  dropout_param {
    dropout_ratio: 0.5
  }
  include: { phase: TRAIN }
}
layer {
  name: "dc_ip321"
  type: "InnerProduct"
  bottom: "dc_ip221"
  top: "dc_ip321"
  param {
    lr_mult: 10
  }
  param {
    lr_mult: 20
  }
  inner_product_param {
    num_output: 1
    weight_filler {
      type: "gaussian"
      std: 0.3
    }
    bias_filler {
      type: "constant"
    }
  }
  include: { phase: TRAIN }
}
layer {
  name: "dc_loss21"
  type: "SigmoidCrossEntropyLoss"
  bottom: "dc_ip321"
  bottom: "dc_labels"
  top: "dc_loss21"
  loss_weight: 0.3
  include: { phase: TRAIN }
}
layer {
  name: "dc_ip122"
  type: "InnerProduct"
  bottom: "grl22"
  top: "dc_ip122"
  param {
    #name: "ip1_1"
    lr_mult: 10
  }
  param {
    #name: "ip1_2"
    lr_mult: 20
  }
  inner_product_param {
    num_output: 1024
    weight_filler {
      type: "gaussian"
      std: 0.01
    }
    bias_filler {
      type: "constant"
    }
  }
  include: { phase: TRAIN }
}
layer {
  name: "dc_relu122"
  type: "ReLU"
  bottom: "dc_ip122"
  top: "dc_ip122"
  include: { phase: TRAIN }
}
layer {
  name: "dc_drop122"
  type: "Dropout"
  bottom: "dc_ip122"
  top: "dc_ip122"
  dropout_param {
    dropout_ratio: 0.5
  }
  include: { phase: TRAIN }
}
layer {
  name: "dc_ip222"
  type: "InnerProduct"
  bottom: "dc_ip122"
  top: "dc_ip222"
  param {
    #name: "ip2_1"
    lr_mult: 10
  }
  param {
    #name: "ip2_2"
    lr_mult: 20
  }
  inner_product_param {
    num_output: 1024
    weight_filler {
      type: "gaussian"
      std: 0.01
    }
    bias_filler {
      type: "constant"
    }
  }
  include: { phase: TRAIN }
}
layer {
  name: "dc_relu222"
  type: "ReLU"
  bottom: "dc_ip222"
  top: "dc_ip222"
  include: { phase: TRAIN }
}
layer {
  name: "dc_drop222"
  type: "Dropout"
  bottom: "dc_ip222"
  top: "dc_ip222"
  dropout_param {
    dropout_ratio: 0.5
  }
  include: { phase: TRAIN }
}
layer {
  name: "dc_ip322"
  type: "InnerProduct"
  bottom: "dc_ip222"
  top: "dc_ip322"
  param {
    lr_mult: 10
  }
  param {
    lr_mult: 20
  }
  inner_product_param {
    num_output: 1
    weight_filler {
      type: "gaussian"
      std: 0.3
    }
    bias_filler {
      type: "constant"
    }
  }
  include: { phase: TRAIN }
}
layer {
  name: "dc_loss22"
  type: "SigmoidCrossEntropyLoss"
  bottom: "dc_ip322"
  bottom: "dc_labels"
  top: "dc_loss22"
  loss_weight: 0.3
  include: { phase: TRAIN }
}
layer {
  name: "dc_ip123"
  type: "InnerProduct"
  bottom: "grl23"
  top: "dc_ip123"
  param {
    #name: "ip1_1"
    lr_mult: 10
  }
  param {
    #name: "ip1_2"
    lr_mult: 20
  }
  inner_product_param {
    num_output: 1024
    weight_filler {
      type: "gaussian"
      std: 0.01
    }
    bias_filler {
      type: "constant"
    }
  }
  include: { phase: TRAIN }
}
layer {
  name: "dc_relu123"
  type: "ReLU"
  bottom: "dc_ip123"
  top: "dc_ip123"
  include: { phase: TRAIN }
}
layer {
  name: "dc_drop123"
  type: "Dropout"
  bottom: "dc_ip123"
  top: "dc_ip123"
  dropout_param {
    dropout_ratio: 0.5
  }
  include: { phase: TRAIN }
}
layer {
  name: "dc_ip223"
  type: "InnerProduct"
  bottom: "dc_ip123"
  top: "dc_ip223"
  param {
    #name: "ip2_1"
    lr_mult: 10
  }
  param {
    #name: "ip2_2"
    lr_mult: 20
  }
  inner_product_param {
    num_output: 1024
    weight_filler {
      type: "gaussian"
      std: 0.01
    }
    bias_filler {
      type: "constant"
    }
  }
  include: { phase: TRAIN }
}
layer {
  name: "dc_relu223"
  type: "ReLU"
  bottom: "dc_ip223"
  top: "dc_ip223"
  include: { phase: TRAIN }
}
layer {
  name: "dc_drop223"
  type: "Dropout"
  bottom: "dc_ip223"
  top: "dc_ip223"
  dropout_param {
    dropout_ratio: 0.5
  }
  include: { phase: TRAIN }
}
layer {
  name: "dc_ip323"
  type: "InnerProduct"
  bottom: "dc_ip223"
  top: "dc_ip323"
  param {
    lr_mult: 10
  }
  param {
    lr_mult: 20
  }
  inner_product_param {
    num_output: 1
    weight_filler {
      type: "gaussian"
      std: 0.3
    }
    bias_filler {
      type: "constant"
    }
  }
  include: { phase: TRAIN }
}
layer {
  name: "dc_loss23"
  type: "SigmoidCrossEntropyLoss"
  bottom: "dc_ip323"
  bottom: "dc_labels"
  top: "dc_loss23"
  loss_weight: 0.3
  include: { phase: TRAIN }
}
layer {
  name: "dc_ip124"
  type: "InnerProduct"
  bottom: "grl24"
  top: "dc_ip124"
  param {
    #name: "ip1_1"
    lr_mult: 10
  }
  param {
    #name: "ip1_2"
    lr_mult: 20
  }
  inner_product_param {
    num_output: 1024
    weight_filler {
      type: "gaussian"
      std: 0.01
    }
    bias_filler {
      type: "constant"
    }
  }
  include: { phase: TRAIN }
}
layer {
  name: "dc_relu124"
  type: "ReLU"
  bottom: "dc_ip124"
  top: "dc_ip124"
  include: { phase: TRAIN }
}
layer {
  name: "dc_drop124"
  type: "Dropout"
  bottom: "dc_ip124"
  top: "dc_ip124"
  dropout_param {
    dropout_ratio: 0.5
  }
  include: { phase: TRAIN }
}
layer {
  name: "dc_ip224"
  type: "InnerProduct"
  bottom: "dc_ip124"
  top: "dc_ip224"
  param {
    #name: "ip2_1"
    lr_mult: 10
  }
  param {
    #name: "ip2_2"
    lr_mult: 20
  }
  inner_product_param {
    num_output: 1024
    weight_filler {
      type: "gaussian"
      std: 0.01
    }
    bias_filler {
      type: "constant"
    }
  }
  include: { phase: TRAIN }
}
layer {
  name: "dc_relu224"
  type: "ReLU"
  bottom: "dc_ip224"
  top: "dc_ip224"
  include: { phase: TRAIN }
}
layer {
  name: "dc_drop224"
  type: "Dropout"
  bottom: "dc_ip224"
  top: "dc_ip224"
  dropout_param {
    dropout_ratio: 0.5
  }
  include: { phase: TRAIN }
}
layer {
  name: "dc_ip324"
  type: "InnerProduct"
  bottom: "dc_ip224"
  top: "dc_ip324"
  param {
    lr_mult: 10
  }
  param {
    lr_mult: 20
  }
  inner_product_param {
    num_output: 1
    weight_filler {
      type: "gaussian"
      std: 0.3
    }
    bias_filler {
      type: "constant"
    }
  }
  include: { phase: TRAIN }
}
layer {
  name: "dc_loss24"
  type: "SigmoidCrossEntropyLoss"
  bottom: "dc_ip324"
  bottom: "dc_labels"
  top: "dc_loss24"
  loss_weight: 0.3
  include: { phase: TRAIN }
}
layer {
  name: "dc_ip125"
  type: "InnerProduct"
  bottom: "grl25"
  top: "dc_ip125"
  param {
    #name: "ip1_1"
    lr_mult: 10
  }
  param {
    #name: "ip1_2"
    lr_mult: 20
  }
  inner_product_param {
    num_output: 1024
    weight_filler {
      type: "gaussian"
      std: 0.01
    }
    bias_filler {
      type: "constant"
    }
  }
  include: { phase: TRAIN }
}
layer {
  name: "dc_relu125"
  type: "ReLU"
  bottom: "dc_ip125"
  top: "dc_ip125"
  include: { phase: TRAIN }
}
layer {
  name: "dc_drop125"
  type: "Dropout"
  bottom: "dc_ip125"
  top: "dc_ip125"
  dropout_param {
    dropout_ratio: 0.5
  }
  include: { phase: TRAIN }
}
layer {
  name: "dc_ip225"
  type: "InnerProduct"
  bottom: "dc_ip125"
  top: "dc_ip225"
  param {
    #name: "ip2_1"
    lr_mult: 10
  }
  param {
    #name: "ip2_2"
    lr_mult: 20
  }
  inner_product_param {
    num_output: 1024
    weight_filler {
      type: "gaussian"
      std: 0.01
    }
    bias_filler {
      type: "constant"
    }
  }
  include: { phase: TRAIN }
}
layer {
  name: "dc_relu225"
  type: "ReLU"
  bottom: "dc_ip225"
  top: "dc_ip225"
  include: { phase: TRAIN }
}
layer {
  name: "dc_drop225"
  type: "Dropout"
  bottom: "dc_ip225"
  top: "dc_ip225"
  dropout_param {
    dropout_ratio: 0.5
  }
  include: { phase: TRAIN }
}
layer {
  name: "dc_ip325"
  type: "InnerProduct"
  bottom: "dc_ip225"
  top: "dc_ip325"
  param {
    lr_mult: 10
  }
  param {
    lr_mult: 20
  }
  inner_product_param {
    num_output: 1
    weight_filler {
      type: "gaussian"
      std: 0.3
    }
    bias_filler {
      type: "constant"
    }
  }
  include: { phase: TRAIN }
}
layer {
  name: "dc_loss25"
  type: "SigmoidCrossEntropyLoss"
  bottom: "dc_ip325"
  bottom: "dc_labels"
  top: "dc_loss25"
  loss_weight: 0.3
  include: { phase: TRAIN }
}
layer {
  name: "dc_ip126"
  type: "InnerProduct"
  bottom: "grl26"
  top: "dc_ip126"
  param {
    #name: "ip1_1"
    lr_mult: 10
  }
  param {
    #name: "ip1_2"
    lr_mult: 20
  }
  inner_product_param {
    num_output: 1024
    weight_filler {
      type: "gaussian"
      std: 0.01
    }
    bias_filler {
      type: "constant"
    }
  }
  include: { phase: TRAIN }
}
layer {
  name: "dc_relu126"
  type: "ReLU"
  bottom: "dc_ip126"
  top: "dc_ip126"
  include: { phase: TRAIN }
}
layer {
  name: "dc_drop126"
  type: "Dropout"
  bottom: "dc_ip126"
  top: "dc_ip126"
  dropout_param {
    dropout_ratio: 0.5
  }
  include: { phase: TRAIN }
}
layer {
  name: "dc_ip226"
  type: "InnerProduct"
  bottom: "dc_ip126"
  top: "dc_ip226"
  param {
    #name: "ip2_1"
    lr_mult: 10
  }
  param {
    #name: "ip2_2"
    lr_mult: 20
  }
  inner_product_param {
    num_output: 1024
    weight_filler {
      type: "gaussian"
      std: 0.01
    }
    bias_filler {
      type: "constant"
    }
  }
  include: { phase: TRAIN }
}
layer {
  name: "dc_relu226"
  type: "ReLU"
  bottom: "dc_ip226"
  top: "dc_ip226"
  include: { phase: TRAIN }
}
layer {
  name: "dc_drop226"
  type: "Dropout"
  bottom: "dc_ip226"
  top: "dc_ip226"
  dropout_param {
    dropout_ratio: 0.5
  }
  include: { phase: TRAIN }
}
layer {
  name: "dc_ip326"
  type: "InnerProduct"
  bottom: "dc_ip226"
  top: "dc_ip326"
  param {
    lr_mult: 10
  }
  param {
    lr_mult: 20
  }
  inner_product_param {
    num_output: 1
    weight_filler {
      type: "gaussian"
      std: 0.3
    }
    bias_filler {
      type: "constant"
    }
  }
  include: { phase: TRAIN }
}
layer {
  name: "dc_loss26"
  type: "SigmoidCrossEntropyLoss"
  bottom: "dc_ip326"
  bottom: "dc_labels"
  top: "dc_loss26"
  loss_weight: 0.3
  include: { phase: TRAIN }
}
layer {
  name: "dc_ip127"
  type: "InnerProduct"
  bottom: "grl27"
  top: "dc_ip127"
  param {
    #name: "ip1_1"
    lr_mult: 10
  }
  param {
    #name: "ip1_2"
    lr_mult: 20
  }
  inner_product_param {
    num_output: 1024
    weight_filler {
      type: "gaussian"
      std: 0.01
    }
    bias_filler {
      type: "constant"
    }
  }
  include: { phase: TRAIN }
}
layer {
  name: "dc_relu127"
  type: "ReLU"
  bottom: "dc_ip127"
  top: "dc_ip127"
  include: { phase: TRAIN }
}
layer {
  name: "dc_drop127"
  type: "Dropout"
  bottom: "dc_ip127"
  top: "dc_ip127"
  dropout_param {
    dropout_ratio: 0.5
  }
  include: { phase: TRAIN }
}
layer {
  name: "dc_ip227"
  type: "InnerProduct"
  bottom: "dc_ip127"
  top: "dc_ip227"
  param {
    #name: "ip2_1"
    lr_mult: 10
  }
  param {
    #name: "ip2_2"
    lr_mult: 20
  }
  inner_product_param {
    num_output: 1024
    weight_filler {
      type: "gaussian"
      std: 0.01
    }
    bias_filler {
      type: "constant"
    }
  }
  include: { phase: TRAIN }
}
layer {
  name: "dc_relu227"
  type: "ReLU"
  bottom: "dc_ip227"
  top: "dc_ip227"
  include: { phase: TRAIN }
}
layer {
  name: "dc_drop227"
  type: "Dropout"
  bottom: "dc_ip227"
  top: "dc_ip227"
  dropout_param {
    dropout_ratio: 0.5
  }
  include: { phase: TRAIN }
}
layer {
  name: "dc_ip327"
  type: "InnerProduct"
  bottom: "dc_ip227"
  top: "dc_ip327"
  param {
    lr_mult: 10
  }
  param {
    lr_mult: 20
  }
  inner_product_param {
    num_output: 1
    weight_filler {
      type: "gaussian"
      std: 0.3
    }
    bias_filler {
      type: "constant"
    }
  }
  include: { phase: TRAIN }
}
layer {
  name: "dc_loss27"
  type: "SigmoidCrossEntropyLoss"
  bottom: "dc_ip327"
  bottom: "dc_labels"
  top: "dc_loss27"
  loss_weight: 0.3
  include: { phase: TRAIN }
}
layer {
  name: "dc_ip128"
  type: "InnerProduct"
  bottom: "grl28"
  top: "dc_ip128"
  param {
    #name: "ip1_1"
    lr_mult: 10
  }
  param {
    #name: "ip1_2"
    lr_mult: 20
  }
  inner_product_param {
    num_output: 1024
    weight_filler {
      type: "gaussian"
      std: 0.01
    }
    bias_filler {
      type: "constant"
    }
  }
  include: { phase: TRAIN }
}
layer {
  name: "dc_relu128"
  type: "ReLU"
  bottom: "dc_ip128"
  top: "dc_ip128"
  include: { phase: TRAIN }
}
layer {
  name: "dc_drop128"
  type: "Dropout"
  bottom: "dc_ip128"
  top: "dc_ip128"
  dropout_param {
    dropout_ratio: 0.5
  }
  include: { phase: TRAIN }
}
layer {
  name: "dc_ip228"
  type: "InnerProduct"
  bottom: "dc_ip128"
  top: "dc_ip228"
  param {
    #name: "ip2_1"
    lr_mult: 10
  }
  param {
    #name: "ip2_2"
    lr_mult: 20
  }
  inner_product_param {
    num_output: 1024
    weight_filler {
      type: "gaussian"
      std: 0.01
    }
    bias_filler {
      type: "constant"
    }
  }
  include: { phase: TRAIN }
}
layer {
  name: "dc_relu228"
  type: "ReLU"
  bottom: "dc_ip228"
  top: "dc_ip228"
  include: { phase: TRAIN }
}
layer {
  name: "dc_drop228"
  type: "Dropout"
  bottom: "dc_ip228"
  top: "dc_ip228"
  dropout_param {
    dropout_ratio: 0.5
  }
  include: { phase: TRAIN }
}
layer {
  name: "dc_ip328"
  type: "InnerProduct"
  bottom: "dc_ip228"
  top: "dc_ip328"
  param {
    lr_mult: 10
  }
  param {
    lr_mult: 20
  }
  inner_product_param {
    num_output: 1
    weight_filler {
      type: "gaussian"
      std: 0.3
    }
    bias_filler {
      type: "constant"
    }
  }
  include: { phase: TRAIN }
}
layer {
  name: "dc_loss28"
  type: "SigmoidCrossEntropyLoss"
  bottom: "dc_ip328"
  bottom: "dc_labels"
  top: "dc_loss28"
  loss_weight: 0.3
  include: { phase: TRAIN }
}
layer {
  name: "dc_ip129"
  type: "InnerProduct"
  bottom: "grl29"
  top: "dc_ip129"
  param {
    #name: "ip1_1"
    lr_mult: 10
  }
  param {
    #name: "ip1_2"
    lr_mult: 20
  }
  inner_product_param {
    num_output: 1024
    weight_filler {
      type: "gaussian"
      std: 0.01
    }
    bias_filler {
      type: "constant"
    }
  }
  include: { phase: TRAIN }
}
layer {
  name: "dc_relu129"
  type: "ReLU"
  bottom: "dc_ip129"
  top: "dc_ip129"
  include: { phase: TRAIN }
}
layer {
  name: "dc_drop129"
  type: "Dropout"
  bottom: "dc_ip129"
  top: "dc_ip129"
  dropout_param {
    dropout_ratio: 0.5
  }
  include: { phase: TRAIN }
}
layer {
  name: "dc_ip229"
  type: "InnerProduct"
  bottom: "dc_ip129"
  top: "dc_ip229"
  param {
    #name: "ip2_1"
    lr_mult: 10
  }
  param {
    #name: "ip2_2"
    lr_mult: 20
  }
  inner_product_param {
    num_output: 1024
    weight_filler {
      type: "gaussian"
      std: 0.01
    }
    bias_filler {
      type: "constant"
    }
  }
  include: { phase: TRAIN }
}
layer {
  name: "dc_relu229"
  type: "ReLU"
  bottom: "dc_ip229"
  top: "dc_ip229"
  include: { phase: TRAIN }
}
layer {
  name: "dc_drop229"
  type: "Dropout"
  bottom: "dc_ip229"
  top: "dc_ip229"
  dropout_param {
    dropout_ratio: 0.5
  }
  include: { phase: TRAIN }
}
layer {
  name: "dc_ip329"
  type: "InnerProduct"
  bottom: "dc_ip229"
  top: "dc_ip329"
  param {
    lr_mult: 10
  }
  param {
    lr_mult: 20
  }
  inner_product_param {
    num_output: 1
    weight_filler {
      type: "gaussian"
      std: 0.3
    }
    bias_filler {
      type: "constant"
    }
  }
  include: { phase: TRAIN }
}
layer {
  name: "dc_loss29"
  type: "SigmoidCrossEntropyLoss"
  bottom: "dc_ip329"
  bottom: "dc_labels"
  top: "dc_loss29"
  loss_weight: 0.3
  include: { phase: TRAIN }
}
layer {
  name: "dc_ip130"
  type: "InnerProduct"
  bottom: "grl30"
  top: "dc_ip130"
  param {
    #name: "ip1_1"
    lr_mult: 10
  }
  param {
    #name: "ip1_2"
    lr_mult: 20
  }
  inner_product_param {
    num_output: 1024
    weight_filler {
      type: "gaussian"
      std: 0.01
    }
    bias_filler {
      type: "constant"
    }
  }
  include: { phase: TRAIN }
}
layer {
  name: "dc_relu130"
  type: "ReLU"
  bottom: "dc_ip130"
  top: "dc_ip130"
  include: { phase: TRAIN }
}
layer {
  name: "dc_drop130"
  type: "Dropout"
  bottom: "dc_ip130"
  top: "dc_ip130"
  dropout_param {
    dropout_ratio: 0.5
  }
  include: { phase: TRAIN }
}
layer {
  name: "dc_ip230"
  type: "InnerProduct"
  bottom: "dc_ip130"
  top: "dc_ip230"
  param {
    #name: "ip2_1"
    lr_mult: 10
  }
  param {
    #name: "ip2_2"
    lr_mult: 20
  }
  inner_product_param {
    num_output: 1024
    weight_filler {
      type: "gaussian"
      std: 0.01
    }
    bias_filler {
      type: "constant"
    }
  }
  include: { phase: TRAIN }
}
layer {
  name: "dc_relu230"
  type: "ReLU"
  bottom: "dc_ip230"
  top: "dc_ip230"
  include: { phase: TRAIN }
}
layer {
  name: "dc_drop230"
  type: "Dropout"
  bottom: "dc_ip230"
  top: "dc_ip230"
  dropout_param {
    dropout_ratio: 0.5
  }
  include: { phase: TRAIN }
}
layer {
  name: "dc_ip330"
  type: "InnerProduct"
  bottom: "dc_ip230"
  top: "dc_ip330"
  param {
    lr_mult: 10
  }
  param {
    lr_mult: 20
  }
  inner_product_param {
    num_output: 1
    weight_filler {
      type: "gaussian"
      std: 0.3
    }
    bias_filler {
      type: "constant"
    }
  }
  include: { phase: TRAIN }
}
layer {
  name: "dc_loss30"
  type: "SigmoidCrossEntropyLoss"
  bottom: "dc_ip330"
  bottom: "dc_labels"
  top: "dc_loss30"
  loss_weight: 0.3
  include: { phase: TRAIN }
}
layer {
  name: "dc_ip131"
  type: "InnerProduct"
  bottom: "grl31"
  top: "dc_ip131"
  param {
    #name: "ip1_1"
    lr_mult: 10
  }
  param {
    #name: "ip1_2"
    lr_mult: 20
  }
  inner_product_param {
    num_output: 1024
    weight_filler {
      type: "gaussian"
      std: 0.01
    }
    bias_filler {
      type: "constant"
    }
  }
  include: { phase: TRAIN }
}
layer {
  name: "dc_relu131"
  type: "ReLU"
  bottom: "dc_ip131"
  top: "dc_ip131"
  include: { phase: TRAIN }
}
layer {
  name: "dc_drop131"
  type: "Dropout"
  bottom: "dc_ip131"
  top: "dc_ip131"
  dropout_param {
    dropout_ratio: 0.5
  }
  include: { phase: TRAIN }
}
layer {
  name: "dc_ip231"
  type: "InnerProduct"
  bottom: "dc_ip131"
  top: "dc_ip231"
  param {
    #name: "ip2_1"
    lr_mult: 10
  }
  param {
    #name: "ip2_2"
    lr_mult: 20
  }
  inner_product_param {
    num_output: 1024
    weight_filler {
      type: "gaussian"
      std: 0.01
    }
    bias_filler {
      type: "constant"
    }
  }
  include: { phase: TRAIN }
}
layer {
  name: "dc_relu231"
  type: "ReLU"
  bottom: "dc_ip231"
  top: "dc_ip231"
  include: { phase: TRAIN }
}
layer {
  name: "dc_drop231"
  type: "Dropout"
  bottom: "dc_ip231"
  top: "dc_ip231"
  dropout_param {
    dropout_ratio: 0.5
  }
  include: { phase: TRAIN }
}
layer {
  name: "dc_ip331"
  type: "InnerProduct"
  bottom: "dc_ip231"
  top: "dc_ip331"
  param {
    lr_mult: 10
  }
  param {
    lr_mult: 20
  }
  inner_product_param {
    num_output: 1
    weight_filler {
      type: "gaussian"
      std: 0.3
    }
    bias_filler {
      type: "constant"
    }
  }
  include: { phase: TRAIN }
}
layer {
  name: "dc_loss31"
  type: "SigmoidCrossEntropyLoss"
  bottom: "dc_ip331"
  bottom: "dc_labels"
  top: "dc_loss31"
  loss_weight: 0.3
  include: { phase: TRAIN }
}
layer {
  name: "dc_ip132"
  type: "InnerProduct"
  bottom: "grl32"
  top: "dc_ip132"
  param {
    #name: "ip1_1"
    lr_mult: 10
  }
  param {
    #name: "ip1_2"
    lr_mult: 20
  }
  inner_product_param {
    num_output: 1024
    weight_filler {
      type: "gaussian"
      std: 0.01
    }
    bias_filler {
      type: "constant"
    }
  }
  include: { phase: TRAIN }
}
layer {
  name: "dc_relu132"
  type: "ReLU"
  bottom: "dc_ip132"
  top: "dc_ip132"
  include: { phase: TRAIN }
}
layer {
  name: "dc_drop132"
  type: "Dropout"
  bottom: "dc_ip132"
  top: "dc_ip132"
  dropout_param {
    dropout_ratio: 0.5
  }
  include: { phase: TRAIN }
}
layer {
  name: "dc_ip232"
  type: "InnerProduct"
  bottom: "dc_ip132"
  top: "dc_ip232"
  param {
    #name: "ip2_1"
    lr_mult: 10
  }
  param {
    #name: "ip2_2"
    lr_mult: 20
  }
  inner_product_param {
    num_output: 1024
    weight_filler {
      type: "gaussian"
      std: 0.01
    }
    bias_filler {
      type: "constant"
    }
  }
  include: { phase: TRAIN }
}
layer {
  name: "dc_relu232"
  type: "ReLU"
  bottom: "dc_ip232"
  top: "dc_ip232"
  include: { phase: TRAIN }
}
layer {
  name: "dc_drop232"
  type: "Dropout"
  bottom: "dc_ip232"
  top: "dc_ip232"
  dropout_param {
    dropout_ratio: 0.5
  }
  include: { phase: TRAIN }
}
layer {
  name: "dc_ip332"
  type: "InnerProduct"
  bottom: "dc_ip232"
  top: "dc_ip332"
  param {
    lr_mult: 10
  }
  param {
    lr_mult: 20
  }
  inner_product_param {
    num_output: 1
    weight_filler {
      type: "gaussian"
      std: 0.3
    }
    bias_filler {
      type: "constant"
    }
  }
  include: { phase: TRAIN }
}
layer {
  name: "dc_loss32"
  type: "SigmoidCrossEntropyLoss"
  bottom: "dc_ip332"
  bottom: "dc_labels"
  top: "dc_loss32"
  loss_weight: 0.3
  include: { phase: TRAIN }
}
layer {
  name: "dc_ip133"
  type: "InnerProduct"
  bottom: "grl33"
  top: "dc_ip133"
  param {
    #name: "ip1_1"
    lr_mult: 10
  }
  param {
    #name: "ip1_2"
    lr_mult: 20
  }
  inner_product_param {
    num_output: 1024
    weight_filler {
      type: "gaussian"
      std: 0.01
    }
    bias_filler {
      type: "constant"
    }
  }
  include: { phase: TRAIN }
}
layer {
  name: "dc_relu133"
  type: "ReLU"
  bottom: "dc_ip133"
  top: "dc_ip133"
  include: { phase: TRAIN }
}
layer {
  name: "dc_drop133"
  type: "Dropout"
  bottom: "dc_ip133"
  top: "dc_ip133"
  dropout_param {
    dropout_ratio: 0.5
  }
  include: { phase: TRAIN }
}
layer {
  name: "dc_ip233"
  type: "InnerProduct"
  bottom: "dc_ip133"
  top: "dc_ip233"
  param {
    #name: "ip2_1"
    lr_mult: 10
  }
  param {
    #name: "ip2_2"
    lr_mult: 20
  }
  inner_product_param {
    num_output: 1024
    weight_filler {
      type: "gaussian"
      std: 0.01
    }
    bias_filler {
      type: "constant"
    }
  }
  include: { phase: TRAIN }
}
layer {
  name: "dc_relu233"
  type: "ReLU"
  bottom: "dc_ip233"
  top: "dc_ip233"
  include: { phase: TRAIN }
}
layer {
  name: "dc_drop233"
  type: "Dropout"
  bottom: "dc_ip233"
  top: "dc_ip233"
  dropout_param {
    dropout_ratio: 0.5
  }
  include: { phase: TRAIN }
}
layer {
  name: "dc_ip333"
  type: "InnerProduct"
  bottom: "dc_ip233"
  top: "dc_ip333"
  param {
    lr_mult: 10
  }
  param {
    lr_mult: 20
  }
  inner_product_param {
    num_output: 1
    weight_filler {
      type: "gaussian"
      std: 0.3
    }
    bias_filler {
      type: "constant"
    }
  }
  include: { phase: TRAIN }
}
layer {
  name: "dc_loss33"
  type: "SigmoidCrossEntropyLoss"
  bottom: "dc_ip333"
  bottom: "dc_labels"
  top: "dc_loss33"
  loss_weight: 0.3
  include: { phase: TRAIN }
}
layer {
  name: "dc_ip134"
  type: "InnerProduct"
  bottom: "grl34"
  top: "dc_ip134"
  param {
    #name: "ip1_1"
    lr_mult: 10
  }
  param {
    #name: "ip1_2"
    lr_mult: 20
  }
  inner_product_param {
    num_output: 1024
    weight_filler {
      type: "gaussian"
      std: 0.01
    }
    bias_filler {
      type: "constant"
    }
  }
  include: { phase: TRAIN }
}
layer {
  name: "dc_relu134"
  type: "ReLU"
  bottom: "dc_ip134"
  top: "dc_ip134"
  include: { phase: TRAIN }
}
layer {
  name: "dc_drop134"
  type: "Dropout"
  bottom: "dc_ip134"
  top: "dc_ip134"
  dropout_param {
    dropout_ratio: 0.5
  }
  include: { phase: TRAIN }
}
layer {
  name: "dc_ip234"
  type: "InnerProduct"
  bottom: "dc_ip134"
  top: "dc_ip234"
  param {
    #name: "ip2_1"
    lr_mult: 10
  }
  param {
    #name: "ip2_2"
    lr_mult: 20
  }
  inner_product_param {
    num_output: 1024
    weight_filler {
      type: "gaussian"
      std: 0.01
    }
    bias_filler {
      type: "constant"
    }
  }
  include: { phase: TRAIN }
}
layer {
  name: "dc_relu234"
  type: "ReLU"
  bottom: "dc_ip234"
  top: "dc_ip234"
  include: { phase: TRAIN }
}
layer {
  name: "dc_drop234"
  type: "Dropout"
  bottom: "dc_ip234"
  top: "dc_ip234"
  dropout_param {
    dropout_ratio: 0.5
  }
  include: { phase: TRAIN }
}
layer {
  name: "dc_ip334"
  type: "InnerProduct"
  bottom: "dc_ip234"
  top: "dc_ip334"
  param {
    lr_mult: 10
  }
  param {
    lr_mult: 20
  }
  inner_product_param {
    num_output: 1
    weight_filler {
      type: "gaussian"
      std: 0.3
    }
    bias_filler {
      type: "constant"
    }
  }
  include: { phase: TRAIN }
}
layer {
  name: "dc_loss34"
  type: "SigmoidCrossEntropyLoss"
  bottom: "dc_ip334"
  bottom: "dc_labels"
  top: "dc_loss34"
  loss_weight: 0.3
  include: { phase: TRAIN }
}
layer {
  name: "dc_ip135"
  type: "InnerProduct"
  bottom: "grl35"
  top: "dc_ip135"
  param {
    #name: "ip1_1"
    lr_mult: 10
  }
  param {
    #name: "ip1_2"
    lr_mult: 20
  }
  inner_product_param {
    num_output: 1024
    weight_filler {
      type: "gaussian"
      std: 0.01
    }
    bias_filler {
      type: "constant"
    }
  }
  include: { phase: TRAIN }
}
layer {
  name: "dc_relu135"
  type: "ReLU"
  bottom: "dc_ip135"
  top: "dc_ip135"
  include: { phase: TRAIN }
}
layer {
  name: "dc_drop135"
  type: "Dropout"
  bottom: "dc_ip135"
  top: "dc_ip135"
  dropout_param {
    dropout_ratio: 0.5
  }
  include: { phase: TRAIN }
}
layer {
  name: "dc_ip235"
  type: "InnerProduct"
  bottom: "dc_ip135"
  top: "dc_ip235"
  param {
    #name: "ip2_1"
    lr_mult: 10
  }
  param {
    #name: "ip2_2"
    lr_mult: 20
  }
  inner_product_param {
    num_output: 1024
    weight_filler {
      type: "gaussian"
      std: 0.01
    }
    bias_filler {
      type: "constant"
    }
  }
  include: { phase: TRAIN }
}
layer {
  name: "dc_relu235"
  type: "ReLU"
  bottom: "dc_ip235"
  top: "dc_ip235"
  include: { phase: TRAIN }
}
layer {
  name: "dc_drop235"
  type: "Dropout"
  bottom: "dc_ip235"
  top: "dc_ip235"
  dropout_param {
    dropout_ratio: 0.5
  }
  include: { phase: TRAIN }
}
layer {
  name: "dc_ip335"
  type: "InnerProduct"
  bottom: "dc_ip235"
  top: "dc_ip335"
  param {
    lr_mult: 10
  }
  param {
    lr_mult: 20
  }
  inner_product_param {
    num_output: 1
    weight_filler {
      type: "gaussian"
      std: 0.3
    }
    bias_filler {
      type: "constant"
    }
  }
  include: { phase: TRAIN }
}
layer {
  name: "dc_loss35"
  type: "SigmoidCrossEntropyLoss"
  bottom: "dc_ip335"
  bottom: "dc_labels"
  top: "dc_loss35"
  loss_weight: 0.3
  include: { phase: TRAIN }
}
layer {
  name: "dc_ip136"
  type: "InnerProduct"
  bottom: "grl36"
  top: "dc_ip136"
  param {
    #name: "ip1_1"
    lr_mult: 10
  }
  param {
    #name: "ip1_2"
    lr_mult: 20
  }
  inner_product_param {
    num_output: 1024
    weight_filler {
      type: "gaussian"
      std: 0.01
    }
    bias_filler {
      type: "constant"
    }
  }
  include: { phase: TRAIN }
}
layer {
  name: "dc_relu136"
  type: "ReLU"
  bottom: "dc_ip136"
  top: "dc_ip136"
  include: { phase: TRAIN }
}
layer {
  name: "dc_drop136"
  type: "Dropout"
  bottom: "dc_ip136"
  top: "dc_ip136"
  dropout_param {
    dropout_ratio: 0.5
  }
  include: { phase: TRAIN }
}
layer {
  name: "dc_ip236"
  type: "InnerProduct"
  bottom: "dc_ip136"
  top: "dc_ip236"
  param {
    #name: "ip2_1"
    lr_mult: 10
  }
  param {
    #name: "ip2_2"
    lr_mult: 20
  }
  inner_product_param {
    num_output: 1024
    weight_filler {
      type: "gaussian"
      std: 0.01
    }
    bias_filler {
      type: "constant"
    }
  }
  include: { phase: TRAIN }
}
layer {
  name: "dc_relu236"
  type: "ReLU"
  bottom: "dc_ip236"
  top: "dc_ip236"
  include: { phase: TRAIN }
}
layer {
  name: "dc_drop236"
  type: "Dropout"
  bottom: "dc_ip236"
  top: "dc_ip236"
  dropout_param {
    dropout_ratio: 0.5
  }
  include: { phase: TRAIN }
}
layer {
  name: "dc_ip336"
  type: "InnerProduct"
  bottom: "dc_ip236"
  top: "dc_ip336"
  param {
    lr_mult: 10
  }
  param {
    lr_mult: 20
  }
  inner_product_param {
    num_output: 1
    weight_filler {
      type: "gaussian"
      std: 0.3
    }
    bias_filler {
      type: "constant"
    }
  }
  include: { phase: TRAIN }
}
layer {
  name: "dc_loss36"
  type: "SigmoidCrossEntropyLoss"
  bottom: "dc_ip336"
  bottom: "dc_labels"
  top: "dc_loss36"
  loss_weight: 0.3
  include: { phase: TRAIN }
}
layer {
  name: "dc_ip137"
  type: "InnerProduct"
  bottom: "grl37"
  top: "dc_ip137"
  param {
    #name: "ip1_1"
    lr_mult: 10
  }
  param {
    #name: "ip1_2"
    lr_mult: 20
  }
  inner_product_param {
    num_output: 1024
    weight_filler {
      type: "gaussian"
      std: 0.01
    }
    bias_filler {
      type: "constant"
    }
  }
  include: { phase: TRAIN }
}
layer {
  name: "dc_relu137"
  type: "ReLU"
  bottom: "dc_ip137"
  top: "dc_ip137"
  include: { phase: TRAIN }
}
layer {
  name: "dc_drop137"
  type: "Dropout"
  bottom: "dc_ip137"
  top: "dc_ip137"
  dropout_param {
    dropout_ratio: 0.5
  }
  include: { phase: TRAIN }
}
layer {
  name: "dc_ip237"
  type: "InnerProduct"
  bottom: "dc_ip137"
  top: "dc_ip237"
  param {
    #name: "ip2_1"
    lr_mult: 10
  }
  param {
    #name: "ip2_2"
    lr_mult: 20
  }
  inner_product_param {
    num_output: 1024
    weight_filler {
      type: "gaussian"
      std: 0.01
    }
    bias_filler {
      type: "constant"
    }
  }
  include: { phase: TRAIN }
}
layer {
  name: "dc_relu237"
  type: "ReLU"
  bottom: "dc_ip237"
  top: "dc_ip237"
  include: { phase: TRAIN }
}
layer {
  name: "dc_drop237"
  type: "Dropout"
  bottom: "dc_ip237"
  top: "dc_ip237"
  dropout_param {
    dropout_ratio: 0.5
  }
  include: { phase: TRAIN }
}
layer {
  name: "dc_ip337"
  type: "InnerProduct"
  bottom: "dc_ip237"
  top: "dc_ip337"
  param {
    lr_mult: 10
  }
  param {
    lr_mult: 20
  }
  inner_product_param {
    num_output: 1
    weight_filler {
      type: "gaussian"
      std: 0.3
    }
    bias_filler {
      type: "constant"
    }
  }
  include: { phase: TRAIN }
}
layer {
  name: "dc_loss37"
  type: "SigmoidCrossEntropyLoss"
  bottom: "dc_ip337"
  bottom: "dc_labels"
  top: "dc_loss37"
  loss_weight: 0.3
  include: { phase: TRAIN }
}
layer {
  name: "dc_ip138"
  type: "InnerProduct"
  bottom: "grl38"
  top: "dc_ip138"
  param {
    #name: "ip1_1"
    lr_mult: 10
  }
  param {
    #name: "ip1_2"
    lr_mult: 20
  }
  inner_product_param {
    num_output: 1024
    weight_filler {
      type: "gaussian"
      std: 0.01
    }
    bias_filler {
      type: "constant"
    }
  }
  include: { phase: TRAIN }
}
layer {
  name: "dc_relu138"
  type: "ReLU"
  bottom: "dc_ip138"
  top: "dc_ip138"
  include: { phase: TRAIN }
}
layer {
  name: "dc_drop138"
  type: "Dropout"
  bottom: "dc_ip138"
  top: "dc_ip138"
  dropout_param {
    dropout_ratio: 0.5
  }
  include: { phase: TRAIN }
}
layer {
  name: "dc_ip238"
  type: "InnerProduct"
  bottom: "dc_ip138"
  top: "dc_ip238"
  param {
    #name: "ip2_1"
    lr_mult: 10
  }
  param {
    #name: "ip2_2"
    lr_mult: 20
  }
  inner_product_param {
    num_output: 1024
    weight_filler {
      type: "gaussian"
      std: 0.01
    }
    bias_filler {
      type: "constant"
    }
  }
  include: { phase: TRAIN }
}
layer {
  name: "dc_relu238"
  type: "ReLU"
  bottom: "dc_ip238"
  top: "dc_ip238"
  include: { phase: TRAIN }
}
layer {
  name: "dc_drop238"
  type: "Dropout"
  bottom: "dc_ip238"
  top: "dc_ip238"
  dropout_param {
    dropout_ratio: 0.5
  }
  include: { phase: TRAIN }
}
layer {
  name: "dc_ip338"
  type: "InnerProduct"
  bottom: "dc_ip238"
  top: "dc_ip338"
  param {
    lr_mult: 10
  }
  param {
    lr_mult: 20
  }
  inner_product_param {
    num_output: 1
    weight_filler {
      type: "gaussian"
      std: 0.3
    }
    bias_filler {
      type: "constant"
    }
  }
  include: { phase: TRAIN }
}
layer {
  name: "dc_loss38"
  type: "SigmoidCrossEntropyLoss"
  bottom: "dc_ip338"
  bottom: "dc_labels"
  top: "dc_loss38"
  loss_weight: 0.3
  include: { phase: TRAIN }
}
layer {
  name: "dc_ip139"
  type: "InnerProduct"
  bottom: "grl39"
  top: "dc_ip139"
  param {
    #name: "ip1_1"
    lr_mult: 10
  }
  param {
    #name: "ip1_2"
    lr_mult: 20
  }
  inner_product_param {
    num_output: 1024
    weight_filler {
      type: "gaussian"
      std: 0.01
    }
    bias_filler {
      type: "constant"
    }
  }
  include: { phase: TRAIN }
}
layer {
  name: "dc_relu139"
  type: "ReLU"
  bottom: "dc_ip139"
  top: "dc_ip139"
  include: { phase: TRAIN }
}
layer {
  name: "dc_drop139"
  type: "Dropout"
  bottom: "dc_ip139"
  top: "dc_ip139"
  dropout_param {
    dropout_ratio: 0.5
  }
  include: { phase: TRAIN }
}
layer {
  name: "dc_ip239"
  type: "InnerProduct"
  bottom: "dc_ip139"
  top: "dc_ip239"
  param {
    #name: "ip2_1"
    lr_mult: 10
  }
  param {
    #name: "ip2_2"
    lr_mult: 20
  }
  inner_product_param {
    num_output: 1024
    weight_filler {
      type: "gaussian"
      std: 0.01
    }
    bias_filler {
      type: "constant"
    }
  }
  include: { phase: TRAIN }
}
layer {
  name: "dc_relu239"
  type: "ReLU"
  bottom: "dc_ip239"
  top: "dc_ip239"
  include: { phase: TRAIN }
}
layer {
  name: "dc_drop239"
  type: "Dropout"
  bottom: "dc_ip239"
  top: "dc_ip239"
  dropout_param {
    dropout_ratio: 0.5
  }
  include: { phase: TRAIN }
}
layer {
  name: "dc_ip339"
  type: "InnerProduct"
  bottom: "dc_ip239"
  top: "dc_ip339"
  param {
    lr_mult: 10
  }
  param {
    lr_mult: 20
  }
  inner_product_param {
    num_output: 1
    weight_filler {
      type: "gaussian"
      std: 0.3
    }
    bias_filler {
      type: "constant"
    }
  }
  include: { phase: TRAIN }
}
layer {
  name: "dc_loss39"
  type: "SigmoidCrossEntropyLoss"
  bottom: "dc_ip339"
  bottom: "dc_labels"
  top: "dc_loss39"
  loss_weight: 0.3
  include: { phase: TRAIN }
}
layer {
  name: "dc_ip140"
  type: "InnerProduct"
  bottom: "grl40"
  top: "dc_ip140"
  param {
    #name: "ip1_1"
    lr_mult: 10
  }
  param {
    #name: "ip1_2"
    lr_mult: 20
  }
  inner_product_param {
    num_output: 1024
    weight_filler {
      type: "gaussian"
      std: 0.01
    }
    bias_filler {
      type: "constant"
    }
  }
  include: { phase: TRAIN }
}
layer {
  name: "dc_relu140"
  type: "ReLU"
  bottom: "dc_ip140"
  top: "dc_ip140"
  include: { phase: TRAIN }
}
layer {
  name: "dc_drop140"
  type: "Dropout"
  bottom: "dc_ip140"
  top: "dc_ip140"
  dropout_param {
    dropout_ratio: 0.5
  }
  include: { phase: TRAIN }
}
layer {
  name: "dc_ip240"
  type: "InnerProduct"
  bottom: "dc_ip140"
  top: "dc_ip240"
  param {
    #name: "ip2_1"
    lr_mult: 10
  }
  param {
    #name: "ip2_2"
    lr_mult: 20
  }
  inner_product_param {
    num_output: 1024
    weight_filler {
      type: "gaussian"
      std: 0.01
    }
    bias_filler {
      type: "constant"
    }
  }
  include: { phase: TRAIN }
}
layer {
  name: "dc_relu240"
  type: "ReLU"
  bottom: "dc_ip240"
  top: "dc_ip240"
  include: { phase: TRAIN }
}
layer {
  name: "dc_drop240"
  type: "Dropout"
  bottom: "dc_ip240"
  top: "dc_ip240"
  dropout_param {
    dropout_ratio: 0.5
  }
  include: { phase: TRAIN }
}
layer {
  name: "dc_ip340"
  type: "InnerProduct"
  bottom: "dc_ip240"
  top: "dc_ip340"
  param {
    lr_mult: 10
  }
  param {
    lr_mult: 20
  }
  inner_product_param {
    num_output: 1
    weight_filler {
      type: "gaussian"
      std: 0.3
    }
    bias_filler {
      type: "constant"
    }
  }
  include: { phase: TRAIN }
}
layer {
  name: "dc_loss40"
  type: "SigmoidCrossEntropyLoss"
  bottom: "dc_ip340"
  bottom: "dc_labels"
  top: "dc_loss40"
  loss_weight: 0.3
  include: { phase: TRAIN }
}
layer {
  name: "dc_ip141"
  type: "InnerProduct"
  bottom: "grl41"
  top: "dc_ip141"
  param {
    #name: "ip1_1"
    lr_mult: 10
  }
  param {
    #name: "ip1_2"
    lr_mult: 20
  }
  inner_product_param {
    num_output: 1024
    weight_filler {
      type: "gaussian"
      std: 0.01
    }
    bias_filler {
      type: "constant"
    }
  }
  include: { phase: TRAIN }
}
layer {
  name: "dc_relu141"
  type: "ReLU"
  bottom: "dc_ip141"
  top: "dc_ip141"
  include: { phase: TRAIN }
}
layer {
  name: "dc_drop141"
  type: "Dropout"
  bottom: "dc_ip141"
  top: "dc_ip141"
  dropout_param {
    dropout_ratio: 0.5
  }
  include: { phase: TRAIN }
}
layer {
  name: "dc_ip241"
  type: "InnerProduct"
  bottom: "dc_ip141"
  top: "dc_ip241"
  param {
    #name: "ip2_1"
    lr_mult: 10
  }
  param {
    #name: "ip2_2"
    lr_mult: 20
  }
  inner_product_param {
    num_output: 1024
    weight_filler {
      type: "gaussian"
      std: 0.01
    }
    bias_filler {
      type: "constant"
    }
  }
  include: { phase: TRAIN }
}
layer {
  name: "dc_relu241"
  type: "ReLU"
  bottom: "dc_ip241"
  top: "dc_ip241"
  include: { phase: TRAIN }
}
layer {
  name: "dc_drop241"
  type: "Dropout"
  bottom: "dc_ip241"
  top: "dc_ip241"
  dropout_param {
    dropout_ratio: 0.5
  }
  include: { phase: TRAIN }
}
layer {
  name: "dc_ip341"
  type: "InnerProduct"
  bottom: "dc_ip241"
  top: "dc_ip341"
  param {
    lr_mult: 10
  }
  param {
    lr_mult: 20
  }
  inner_product_param {
    num_output: 1
    weight_filler {
      type: "gaussian"
      std: 0.3
    }
    bias_filler {
      type: "constant"
    }
  }
  include: { phase: TRAIN }
}
layer {
  name: "dc_loss41"
  type: "SigmoidCrossEntropyLoss"
  bottom: "dc_ip341"
  bottom: "dc_labels"
  top: "dc_loss41"
  loss_weight: 0.3
  include: { phase: TRAIN }
}
layer {
  name: "dc_ip142"
  type: "InnerProduct"
  bottom: "grl42"
  top: "dc_ip142"
  param {
    #name: "ip1_1"
    lr_mult: 10
  }
  param {
    #name: "ip1_2"
    lr_mult: 20
  }
  inner_product_param {
    num_output: 1024
    weight_filler {
      type: "gaussian"
      std: 0.01
    }
    bias_filler {
      type: "constant"
    }
  }
  include: { phase: TRAIN }
}
layer {
  name: "dc_relu142"
  type: "ReLU"
  bottom: "dc_ip142"
  top: "dc_ip142"
  include: { phase: TRAIN }
}
layer {
  name: "dc_drop142"
  type: "Dropout"
  bottom: "dc_ip142"
  top: "dc_ip142"
  dropout_param {
    dropout_ratio: 0.5
  }
  include: { phase: TRAIN }
}
layer {
  name: "dc_ip242"
  type: "InnerProduct"
  bottom: "dc_ip142"
  top: "dc_ip242"
  param {
    #name: "ip2_1"
    lr_mult: 10
  }
  param {
    #name: "ip2_2"
    lr_mult: 20
  }
  inner_product_param {
    num_output: 1024
    weight_filler {
      type: "gaussian"
      std: 0.01
    }
    bias_filler {
      type: "constant"
    }
  }
  include: { phase: TRAIN }
}
layer {
  name: "dc_relu242"
  type: "ReLU"
  bottom: "dc_ip242"
  top: "dc_ip242"
  include: { phase: TRAIN }
}
layer {
  name: "dc_drop242"
  type: "Dropout"
  bottom: "dc_ip242"
  top: "dc_ip242"
  dropout_param {
    dropout_ratio: 0.5
  }
  include: { phase: TRAIN }
}
layer {
  name: "dc_ip342"
  type: "InnerProduct"
  bottom: "dc_ip242"
  top: "dc_ip342"
  param {
    lr_mult: 10
  }
  param {
    lr_mult: 20
  }
  inner_product_param {
    num_output: 1
    weight_filler {
      type: "gaussian"
      std: 0.3
    }
    bias_filler {
      type: "constant"
    }
  }
  include: { phase: TRAIN }
}
layer {
  name: "dc_loss42"
  type: "SigmoidCrossEntropyLoss"
  bottom: "dc_ip342"
  bottom: "dc_labels"
  top: "dc_loss42"
  loss_weight: 0.3
  include: { phase: TRAIN }
}
layer {
  name: "dc_ip143"
  type: "InnerProduct"
  bottom: "grl43"
  top: "dc_ip143"
  param {
    #name: "ip1_1"
    lr_mult: 10
  }
  param {
    #name: "ip1_2"
    lr_mult: 20
  }
  inner_product_param {
    num_output: 1024
    weight_filler {
      type: "gaussian"
      std: 0.01
    }
    bias_filler {
      type: "constant"
    }
  }
  include: { phase: TRAIN }
}
layer {
  name: "dc_relu143"
  type: "ReLU"
  bottom: "dc_ip143"
  top: "dc_ip143"
  include: { phase: TRAIN }
}
layer {
  name: "dc_drop143"
  type: "Dropout"
  bottom: "dc_ip143"
  top: "dc_ip143"
  dropout_param {
    dropout_ratio: 0.5
  }
  include: { phase: TRAIN }
}
layer {
  name: "dc_ip243"
  type: "InnerProduct"
  bottom: "dc_ip143"
  top: "dc_ip243"
  param {
    #name: "ip2_1"
    lr_mult: 10
  }
  param {
    #name: "ip2_2"
    lr_mult: 20
  }
  inner_product_param {
    num_output: 1024
    weight_filler {
      type: "gaussian"
      std: 0.01
    }
    bias_filler {
      type: "constant"
    }
  }
  include: { phase: TRAIN }
}
layer {
  name: "dc_relu243"
  type: "ReLU"
  bottom: "dc_ip243"
  top: "dc_ip243"
  include: { phase: TRAIN }
}
layer {
  name: "dc_drop243"
  type: "Dropout"
  bottom: "dc_ip243"
  top: "dc_ip243"
  dropout_param {
    dropout_ratio: 0.5
  }
  include: { phase: TRAIN }
}
layer {
  name: "dc_ip343"
  type: "InnerProduct"
  bottom: "dc_ip243"
  top: "dc_ip343"
  param {
    lr_mult: 10
  }
  param {
    lr_mult: 20
  }
  inner_product_param {
    num_output: 1
    weight_filler {
      type: "gaussian"
      std: 0.3
    }
    bias_filler {
      type: "constant"
    }
  }
  include: { phase: TRAIN }
}
layer {
  name: "dc_loss43"
  type: "SigmoidCrossEntropyLoss"
  bottom: "dc_ip343"
  bottom: "dc_labels"
  top: "dc_loss43"
  loss_weight: 0.3
  include: { phase: TRAIN }
}
layer {
  name: "dc_ip144"
  type: "InnerProduct"
  bottom: "grl44"
  top: "dc_ip144"
  param {
    #name: "ip1_1"
    lr_mult: 10
  }
  param {
    #name: "ip1_2"
    lr_mult: 20
  }
  inner_product_param {
    num_output: 1024
    weight_filler {
      type: "gaussian"
      std: 0.01
    }
    bias_filler {
      type: "constant"
    }
  }
  include: { phase: TRAIN }
}
layer {
  name: "dc_relu144"
  type: "ReLU"
  bottom: "dc_ip144"
  top: "dc_ip144"
  include: { phase: TRAIN }
}
layer {
  name: "dc_drop144"
  type: "Dropout"
  bottom: "dc_ip144"
  top: "dc_ip144"
  dropout_param {
    dropout_ratio: 0.5
  }
  include: { phase: TRAIN }
}
layer {
  name: "dc_ip244"
  type: "InnerProduct"
  bottom: "dc_ip144"
  top: "dc_ip244"
  param {
    #name: "ip2_1"
    lr_mult: 10
  }
  param {
    #name: "ip2_2"
    lr_mult: 20
  }
  inner_product_param {
    num_output: 1024
    weight_filler {
      type: "gaussian"
      std: 0.01
    }
    bias_filler {
      type: "constant"
    }
  }
  include: { phase: TRAIN }
}
layer {
  name: "dc_relu244"
  type: "ReLU"
  bottom: "dc_ip244"
  top: "dc_ip244"
  include: { phase: TRAIN }
}
layer {
  name: "dc_drop244"
  type: "Dropout"
  bottom: "dc_ip244"
  top: "dc_ip244"
  dropout_param {
    dropout_ratio: 0.5
  }
  include: { phase: TRAIN }
}
layer {
  name: "dc_ip344"
  type: "InnerProduct"
  bottom: "dc_ip244"
  top: "dc_ip344"
  param {
    lr_mult: 10
  }
  param {
    lr_mult: 20
  }
  inner_product_param {
    num_output: 1
    weight_filler {
      type: "gaussian"
      std: 0.3
    }
    bias_filler {
      type: "constant"
    }
  }
  include: { phase: TRAIN }
}
layer {
  name: "dc_loss44"
  type: "SigmoidCrossEntropyLoss"
  bottom: "dc_ip344"
  bottom: "dc_labels"
  top: "dc_loss44"
  loss_weight: 0.3
  include: { phase: TRAIN }
}
layer {
  name: "dc_ip145"
  type: "InnerProduct"
  bottom: "grl45"
  top: "dc_ip145"
  param {
    #name: "ip1_1"
    lr_mult: 10
  }
  param {
    #name: "ip1_2"
    lr_mult: 20
  }
  inner_product_param {
    num_output: 1024
    weight_filler {
      type: "gaussian"
      std: 0.01
    }
    bias_filler {
      type: "constant"
    }
  }
  include: { phase: TRAIN }
}
layer {
  name: "dc_relu145"
  type: "ReLU"
  bottom: "dc_ip145"
  top: "dc_ip145"
  include: { phase: TRAIN }
}
layer {
  name: "dc_drop145"
  type: "Dropout"
  bottom: "dc_ip145"
  top: "dc_ip145"
  dropout_param {
    dropout_ratio: 0.5
  }
  include: { phase: TRAIN }
}
layer {
  name: "dc_ip245"
  type: "InnerProduct"
  bottom: "dc_ip145"
  top: "dc_ip245"
  param {
    #name: "ip2_1"
    lr_mult: 10
  }
  param {
    #name: "ip2_2"
    lr_mult: 20
  }
  inner_product_param {
    num_output: 1024
    weight_filler {
      type: "gaussian"
      std: 0.01
    }
    bias_filler {
      type: "constant"
    }
  }
  include: { phase: TRAIN }
}
layer {
  name: "dc_relu245"
  type: "ReLU"
  bottom: "dc_ip245"
  top: "dc_ip245"
  include: { phase: TRAIN }
}
layer {
  name: "dc_drop245"
  type: "Dropout"
  bottom: "dc_ip245"
  top: "dc_ip245"
  dropout_param {
    dropout_ratio: 0.5
  }
  include: { phase: TRAIN }
}
layer {
  name: "dc_ip345"
  type: "InnerProduct"
  bottom: "dc_ip245"
  top: "dc_ip345"
  param {
    lr_mult: 10
  }
  param {
    lr_mult: 20
  }
  inner_product_param {
    num_output: 1
    weight_filler {
      type: "gaussian"
      std: 0.3
    }
    bias_filler {
      type: "constant"
    }
  }
  include: { phase: TRAIN }
}
layer {
  name: "dc_loss45"
  type: "SigmoidCrossEntropyLoss"
  bottom: "dc_ip345"
  bottom: "dc_labels"
  top: "dc_loss45"
  loss_weight: 0.3
  include: { phase: TRAIN }
}
layer {
  name: "dc_ip146"
  type: "InnerProduct"
  bottom: "grl46"
  top: "dc_ip146"
  param {
    #name: "ip1_1"
    lr_mult: 10
  }
  param {
    #name: "ip1_2"
    lr_mult: 20
  }
  inner_product_param {
    num_output: 1024
    weight_filler {
      type: "gaussian"
      std: 0.01
    }
    bias_filler {
      type: "constant"
    }
  }
  include: { phase: TRAIN }
}
layer {
  name: "dc_relu146"
  type: "ReLU"
  bottom: "dc_ip146"
  top: "dc_ip146"
  include: { phase: TRAIN }
}
layer {
  name: "dc_drop146"
  type: "Dropout"
  bottom: "dc_ip146"
  top: "dc_ip146"
  dropout_param {
    dropout_ratio: 0.5
  }
  include: { phase: TRAIN }
}
layer {
  name: "dc_ip246"
  type: "InnerProduct"
  bottom: "dc_ip146"
  top: "dc_ip246"
  param {
    #name: "ip2_1"
    lr_mult: 10
  }
  param {
    #name: "ip2_2"
    lr_mult: 20
  }
  inner_product_param {
    num_output: 1024
    weight_filler {
      type: "gaussian"
      std: 0.01
    }
    bias_filler {
      type: "constant"
    }
  }
  include: { phase: TRAIN }
}
layer {
  name: "dc_relu246"
  type: "ReLU"
  bottom: "dc_ip246"
  top: "dc_ip246"
  include: { phase: TRAIN }
}
layer {
  name: "dc_drop246"
  type: "Dropout"
  bottom: "dc_ip246"
  top: "dc_ip246"
  dropout_param {
    dropout_ratio: 0.5
  }
  include: { phase: TRAIN }
}
layer {
  name: "dc_ip346"
  type: "InnerProduct"
  bottom: "dc_ip246"
  top: "dc_ip346"
  param {
    lr_mult: 10
  }
  param {
    lr_mult: 20
  }
  inner_product_param {
    num_output: 1
    weight_filler {
      type: "gaussian"
      std: 0.3
    }
    bias_filler {
      type: "constant"
    }
  }
  include: { phase: TRAIN }
}
layer {
  name: "dc_loss46"
  type: "SigmoidCrossEntropyLoss"
  bottom: "dc_ip346"
  bottom: "dc_labels"
  top: "dc_loss46"
  loss_weight: 0.3
  include: { phase: TRAIN }
}
layer {
  name: "dc_ip147"
  type: "InnerProduct"
  bottom: "grl47"
  top: "dc_ip147"
  param {
    #name: "ip1_1"
    lr_mult: 10
  }
  param {
    #name: "ip1_2"
    lr_mult: 20
  }
  inner_product_param {
    num_output: 1024
    weight_filler {
      type: "gaussian"
      std: 0.01
    }
    bias_filler {
      type: "constant"
    }
  }
  include: { phase: TRAIN }
}
layer {
  name: "dc_relu147"
  type: "ReLU"
  bottom: "dc_ip147"
  top: "dc_ip147"
  include: { phase: TRAIN }
}
layer {
  name: "dc_drop147"
  type: "Dropout"
  bottom: "dc_ip147"
  top: "dc_ip147"
  dropout_param {
    dropout_ratio: 0.5
  }
  include: { phase: TRAIN }
}
layer {
  name: "dc_ip247"
  type: "InnerProduct"
  bottom: "dc_ip147"
  top: "dc_ip247"
  param {
    #name: "ip2_1"
    lr_mult: 10
  }
  param {
    #name: "ip2_2"
    lr_mult: 20
  }
  inner_product_param {
    num_output: 1024
    weight_filler {
      type: "gaussian"
      std: 0.01
    }
    bias_filler {
      type: "constant"
    }
  }
  include: { phase: TRAIN }
}
layer {
  name: "dc_relu247"
  type: "ReLU"
  bottom: "dc_ip247"
  top: "dc_ip247"
  include: { phase: TRAIN }
}
layer {
  name: "dc_drop247"
  type: "Dropout"
  bottom: "dc_ip247"
  top: "dc_ip247"
  dropout_param {
    dropout_ratio: 0.5
  }
  include: { phase: TRAIN }
}
layer {
  name: "dc_ip347"
  type: "InnerProduct"
  bottom: "dc_ip247"
  top: "dc_ip347"
  param {
    lr_mult: 10
  }
  param {
    lr_mult: 20
  }
  inner_product_param {
    num_output: 1
    weight_filler {
      type: "gaussian"
      std: 0.3
    }
    bias_filler {
      type: "constant"
    }
  }
  include: { phase: TRAIN }
}
layer {
  name: "dc_loss47"
  type: "SigmoidCrossEntropyLoss"
  bottom: "dc_ip347"
  bottom: "dc_labels"
  top: "dc_loss47"
  loss_weight: 0.3
  include: { phase: TRAIN }
}
layer {
  name: "dc_ip148"
  type: "InnerProduct"
  bottom: "grl48"
  top: "dc_ip148"
  param {
    #name: "ip1_1"
    lr_mult: 10
  }
  param {
    #name: "ip1_2"
    lr_mult: 20
  }
  inner_product_param {
    num_output: 1024
    weight_filler {
      type: "gaussian"
      std: 0.01
    }
    bias_filler {
      type: "constant"
    }
  }
  include: { phase: TRAIN }
}
layer {
  name: "dc_relu148"
  type: "ReLU"
  bottom: "dc_ip148"
  top: "dc_ip148"
  include: { phase: TRAIN }
}
layer {
  name: "dc_drop148"
  type: "Dropout"
  bottom: "dc_ip148"
  top: "dc_ip148"
  dropout_param {
    dropout_ratio: 0.5
  }
  include: { phase: TRAIN }
}
layer {
  name: "dc_ip248"
  type: "InnerProduct"
  bottom: "dc_ip148"
  top: "dc_ip248"
  param {
    #name: "ip2_1"
    lr_mult: 10
  }
  param {
    #name: "ip2_2"
    lr_mult: 20
  }
  inner_product_param {
    num_output: 1024
    weight_filler {
      type: "gaussian"
      std: 0.01
    }
    bias_filler {
      type: "constant"
    }
  }
  include: { phase: TRAIN }
}
layer {
  name: "dc_relu248"
  type: "ReLU"
  bottom: "dc_ip248"
  top: "dc_ip248"
  include: { phase: TRAIN }
}
layer {
  name: "dc_drop248"
  type: "Dropout"
  bottom: "dc_ip248"
  top: "dc_ip248"
  dropout_param {
    dropout_ratio: 0.5
  }
  include: { phase: TRAIN }
}
layer {
  name: "dc_ip348"
  type: "InnerProduct"
  bottom: "dc_ip248"
  top: "dc_ip348"
  param {
    lr_mult: 10
  }
  param {
    lr_mult: 20
  }
  inner_product_param {
    num_output: 1
    weight_filler {
      type: "gaussian"
      std: 0.3
    }
    bias_filler {
      type: "constant"
    }
  }
  include: { phase: TRAIN }
}
layer {
  name: "dc_loss48"
  type: "SigmoidCrossEntropyLoss"
  bottom: "dc_ip348"
  bottom: "dc_labels"
  top: "dc_loss48"
  loss_weight: 0.3
  include: { phase: TRAIN }
}
layer {
  name: "dc_ip149"
  type: "InnerProduct"
  bottom: "grl49"
  top: "dc_ip149"
  param {
    #name: "ip1_1"
    lr_mult: 10
  }
  param {
    #name: "ip1_2"
    lr_mult: 20
  }
  inner_product_param {
    num_output: 1024
    weight_filler {
      type: "gaussian"
      std: 0.01
    }
    bias_filler {
      type: "constant"
    }
  }
  include: { phase: TRAIN }
}
layer {
  name: "dc_relu149"
  type: "ReLU"
  bottom: "dc_ip149"
  top: "dc_ip149"
  include: { phase: TRAIN }
}
layer {
  name: "dc_drop149"
  type: "Dropout"
  bottom: "dc_ip149"
  top: "dc_ip149"
  dropout_param {
    dropout_ratio: 0.5
  }
  include: { phase: TRAIN }
}
layer {
  name: "dc_ip249"
  type: "InnerProduct"
  bottom: "dc_ip149"
  top: "dc_ip249"
  param {
    #name: "ip2_1"
    lr_mult: 10
  }
  param {
    #name: "ip2_2"
    lr_mult: 20
  }
  inner_product_param {
    num_output: 1024
    weight_filler {
      type: "gaussian"
      std: 0.01
    }
    bias_filler {
      type: "constant"
    }
  }
  include: { phase: TRAIN }
}
layer {
  name: "dc_relu249"
  type: "ReLU"
  bottom: "dc_ip249"
  top: "dc_ip249"
  include: { phase: TRAIN }
}
layer {
  name: "dc_drop249"
  type: "Dropout"
  bottom: "dc_ip249"
  top: "dc_ip249"
  dropout_param {
    dropout_ratio: 0.5
  }
  include: { phase: TRAIN }
}
layer {
  name: "dc_ip349"
  type: "InnerProduct"
  bottom: "dc_ip249"
  top: "dc_ip349"
  param {
    lr_mult: 10
  }
  param {
    lr_mult: 20
  }
  inner_product_param {
    num_output: 1
    weight_filler {
      type: "gaussian"
      std: 0.3
    }
    bias_filler {
      type: "constant"
    }
  }
  include: { phase: TRAIN }
}
layer {
  name: "dc_loss49"
  type: "SigmoidCrossEntropyLoss"
  bottom: "dc_ip349"
  bottom: "dc_labels"
  top: "dc_loss49"
  loss_weight: 0.3
  include: { phase: TRAIN }
}
layer {
  name: "dc_ip150"
  type: "InnerProduct"
  bottom: "grl50"
  top: "dc_ip150"
  param {
    #name: "ip1_1"
    lr_mult: 10
  }
  param {
    #name: "ip1_2"
    lr_mult: 20
  }
  inner_product_param {
    num_output: 1024
    weight_filler {
      type: "gaussian"
      std: 0.01
    }
    bias_filler {
      type: "constant"
    }
  }
  include: { phase: TRAIN }
}
layer {
  name: "dc_relu150"
  type: "ReLU"
  bottom: "dc_ip150"
  top: "dc_ip150"
  include: { phase: TRAIN }
}
layer {
  name: "dc_drop150"
  type: "Dropout"
  bottom: "dc_ip150"
  top: "dc_ip150"
  dropout_param {
    dropout_ratio: 0.5
  }
  include: { phase: TRAIN }
}
layer {
  name: "dc_ip250"
  type: "InnerProduct"
  bottom: "dc_ip150"
  top: "dc_ip250"
  param {
    #name: "ip2_1"
    lr_mult: 10
  }
  param {
    #name: "ip2_2"
    lr_mult: 20
  }
  inner_product_param {
    num_output: 1024
    weight_filler {
      type: "gaussian"
      std: 0.01
    }
    bias_filler {
      type: "constant"
    }
  }
  include: { phase: TRAIN }
}
layer {
  name: "dc_relu250"
  type: "ReLU"
  bottom: "dc_ip250"
  top: "dc_ip250"
  include: { phase: TRAIN }
}
layer {
  name: "dc_drop250"
  type: "Dropout"
  bottom: "dc_ip250"
  top: "dc_ip250"
  dropout_param {
    dropout_ratio: 0.5
  }
  include: { phase: TRAIN }
}
layer {
  name: "dc_ip350"
  type: "InnerProduct"
  bottom: "dc_ip250"
  top: "dc_ip350"
  param {
    lr_mult: 10
  }
  param {
    lr_mult: 20
  }
  inner_product_param {
    num_output: 1
    weight_filler {
      type: "gaussian"
      std: 0.3
    }
    bias_filler {
      type: "constant"
    }
  }
  include: { phase: TRAIN }
}
layer {
  name: "dc_loss50"
  type: "SigmoidCrossEntropyLoss"
  bottom: "dc_ip350"
  bottom: "dc_labels"
  top: "dc_loss50"
  loss_weight: 0.3
  include: { phase: TRAIN }
}
layer {
  name: "dc_ip151"
  type: "InnerProduct"
  bottom: "grl51"
  top: "dc_ip151"
  param {
    #name: "ip1_1"
    lr_mult: 10
  }
  param {
    #name: "ip1_2"
    lr_mult: 20
  }
  inner_product_param {
    num_output: 1024
    weight_filler {
      type: "gaussian"
      std: 0.01
    }
    bias_filler {
      type: "constant"
    }
  }
  include: { phase: TRAIN }
}
layer {
  name: "dc_relu151"
  type: "ReLU"
  bottom: "dc_ip151"
  top: "dc_ip151"
  include: { phase: TRAIN }
}
layer {
  name: "dc_drop151"
  type: "Dropout"
  bottom: "dc_ip151"
  top: "dc_ip151"
  dropout_param {
    dropout_ratio: 0.5
  }
  include: { phase: TRAIN }
}
layer {
  name: "dc_ip251"
  type: "InnerProduct"
  bottom: "dc_ip151"
  top: "dc_ip251"
  param {
    #name: "ip2_1"
    lr_mult: 10
  }
  param {
    #name: "ip2_2"
    lr_mult: 20
  }
  inner_product_param {
    num_output: 1024
    weight_filler {
      type: "gaussian"
      std: 0.01
    }
    bias_filler {
      type: "constant"
    }
  }
  include: { phase: TRAIN }
}
layer {
  name: "dc_relu251"
  type: "ReLU"
  bottom: "dc_ip251"
  top: "dc_ip251"
  include: { phase: TRAIN }
}
layer {
  name: "dc_drop251"
  type: "Dropout"
  bottom: "dc_ip251"
  top: "dc_ip251"
  dropout_param {
    dropout_ratio: 0.5
  }
  include: { phase: TRAIN }
}
layer {
  name: "dc_ip351"
  type: "InnerProduct"
  bottom: "dc_ip251"
  top: "dc_ip351"
  param {
    lr_mult: 10
  }
  param {
    lr_mult: 20
  }
  inner_product_param {
    num_output: 1
    weight_filler {
      type: "gaussian"
      std: 0.3
    }
    bias_filler {
      type: "constant"
    }
  }
  include: { phase: TRAIN }
}
layer {
  name: "dc_loss51"
  type: "SigmoidCrossEntropyLoss"
  bottom: "dc_ip351"
  bottom: "dc_labels"
  top: "dc_loss51"
  loss_weight: 0.3
  include: { phase: TRAIN }
}
layer {
  name: "dc_ip152"
  type: "InnerProduct"
  bottom: "grl52"
  top: "dc_ip152"
  param {
    #name: "ip1_1"
    lr_mult: 10
  }
  param {
    #name: "ip1_2"
    lr_mult: 20
  }
  inner_product_param {
    num_output: 1024
    weight_filler {
      type: "gaussian"
      std: 0.01
    }
    bias_filler {
      type: "constant"
    }
  }
  include: { phase: TRAIN }
}
layer {
  name: "dc_relu152"
  type: "ReLU"
  bottom: "dc_ip152"
  top: "dc_ip152"
  include: { phase: TRAIN }
}
layer {
  name: "dc_drop152"
  type: "Dropout"
  bottom: "dc_ip152"
  top: "dc_ip152"
  dropout_param {
    dropout_ratio: 0.5
  }
  include: { phase: TRAIN }
}
layer {
  name: "dc_ip252"
  type: "InnerProduct"
  bottom: "dc_ip152"
  top: "dc_ip252"
  param {
    #name: "ip2_1"
    lr_mult: 10
  }
  param {
    #name: "ip2_2"
    lr_mult: 20
  }
  inner_product_param {
    num_output: 1024
    weight_filler {
      type: "gaussian"
      std: 0.01
    }
    bias_filler {
      type: "constant"
    }
  }
  include: { phase: TRAIN }
}
layer {
  name: "dc_relu252"
  type: "ReLU"
  bottom: "dc_ip252"
  top: "dc_ip252"
  include: { phase: TRAIN }
}
layer {
  name: "dc_drop252"
  type: "Dropout"
  bottom: "dc_ip252"
  top: "dc_ip252"
  dropout_param {
    dropout_ratio: 0.5
  }
  include: { phase: TRAIN }
}
layer {
  name: "dc_ip352"
  type: "InnerProduct"
  bottom: "dc_ip252"
  top: "dc_ip352"
  param {
    lr_mult: 10
  }
  param {
    lr_mult: 20
  }
  inner_product_param {
    num_output: 1
    weight_filler {
      type: "gaussian"
      std: 0.3
    }
    bias_filler {
      type: "constant"
    }
  }
  include: { phase: TRAIN }
}
layer {
  name: "dc_loss52"
  type: "SigmoidCrossEntropyLoss"
  bottom: "dc_ip352"
  bottom: "dc_labels"
  top: "dc_loss52"
  loss_weight: 0.3
  include: { phase: TRAIN }
}
layer {
  name: "dc_ip153"
  type: "InnerProduct"
  bottom: "grl53"
  top: "dc_ip153"
  param {
    #name: "ip1_1"
    lr_mult: 10
  }
  param {
    #name: "ip1_2"
    lr_mult: 20
  }
  inner_product_param {
    num_output: 1024
    weight_filler {
      type: "gaussian"
      std: 0.01
    }
    bias_filler {
      type: "constant"
    }
  }
  include: { phase: TRAIN }
}
layer {
  name: "dc_relu153"
  type: "ReLU"
  bottom: "dc_ip153"
  top: "dc_ip153"
  include: { phase: TRAIN }
}
layer {
  name: "dc_drop153"
  type: "Dropout"
  bottom: "dc_ip153"
  top: "dc_ip153"
  dropout_param {
    dropout_ratio: 0.5
  }
  include: { phase: TRAIN }
}
layer {
  name: "dc_ip253"
  type: "InnerProduct"
  bottom: "dc_ip153"
  top: "dc_ip253"
  param {
    #name: "ip2_1"
    lr_mult: 10
  }
  param {
    #name: "ip2_2"
    lr_mult: 20
  }
  inner_product_param {
    num_output: 1024
    weight_filler {
      type: "gaussian"
      std: 0.01
    }
    bias_filler {
      type: "constant"
    }
  }
  include: { phase: TRAIN }
}
layer {
  name: "dc_relu253"
  type: "ReLU"
  bottom: "dc_ip253"
  top: "dc_ip253"
  include: { phase: TRAIN }
}
layer {
  name: "dc_drop253"
  type: "Dropout"
  bottom: "dc_ip253"
  top: "dc_ip253"
  dropout_param {
    dropout_ratio: 0.5
  }
  include: { phase: TRAIN }
}
layer {
  name: "dc_ip353"
  type: "InnerProduct"
  bottom: "dc_ip253"
  top: "dc_ip353"
  param {
    lr_mult: 10
  }
  param {
    lr_mult: 20
  }
  inner_product_param {
    num_output: 1
    weight_filler {
      type: "gaussian"
      std: 0.3
    }
    bias_filler {
      type: "constant"
    }
  }
  include: { phase: TRAIN }
}
layer {
  name: "dc_loss53"
  type: "SigmoidCrossEntropyLoss"
  bottom: "dc_ip353"
  bottom: "dc_labels"
  top: "dc_loss53"
  loss_weight: 0.3
  include: { phase: TRAIN }
}
layer {
  name: "dc_ip154"
  type: "InnerProduct"
  bottom: "grl54"
  top: "dc_ip154"
  param {
    #name: "ip1_1"
    lr_mult: 10
  }
  param {
    #name: "ip1_2"
    lr_mult: 20
  }
  inner_product_param {
    num_output: 1024
    weight_filler {
      type: "gaussian"
      std: 0.01
    }
    bias_filler {
      type: "constant"
    }
  }
  include: { phase: TRAIN }
}
layer {
  name: "dc_relu154"
  type: "ReLU"
  bottom: "dc_ip154"
  top: "dc_ip154"
  include: { phase: TRAIN }
}
layer {
  name: "dc_drop154"
  type: "Dropout"
  bottom: "dc_ip154"
  top: "dc_ip154"
  dropout_param {
    dropout_ratio: 0.5
  }
  include: { phase: TRAIN }
}
layer {
  name: "dc_ip254"
  type: "InnerProduct"
  bottom: "dc_ip154"
  top: "dc_ip254"
  param {
    #name: "ip2_1"
    lr_mult: 10
  }
  param {
    #name: "ip2_2"
    lr_mult: 20
  }
  inner_product_param {
    num_output: 1024
    weight_filler {
      type: "gaussian"
      std: 0.01
    }
    bias_filler {
      type: "constant"
    }
  }
  include: { phase: TRAIN }
}
layer {
  name: "dc_relu254"
  type: "ReLU"
  bottom: "dc_ip254"
  top: "dc_ip254"
  include: { phase: TRAIN }
}
layer {
  name: "dc_drop254"
  type: "Dropout"
  bottom: "dc_ip254"
  top: "dc_ip254"
  dropout_param {
    dropout_ratio: 0.5
  }
  include: { phase: TRAIN }
}
layer {
  name: "dc_ip354"
  type: "InnerProduct"
  bottom: "dc_ip254"
  top: "dc_ip354"
  param {
    lr_mult: 10
  }
  param {
    lr_mult: 20
  }
  inner_product_param {
    num_output: 1
    weight_filler {
      type: "gaussian"
      std: 0.3
    }
    bias_filler {
      type: "constant"
    }
  }
  include: { phase: TRAIN }
}
layer {
  name: "dc_loss54"
  type: "SigmoidCrossEntropyLoss"
  bottom: "dc_ip354"
  bottom: "dc_labels"
  top: "dc_loss54"
  loss_weight: 0.3
  include: { phase: TRAIN }
}
layer {
  name: "dc_ip155"
  type: "InnerProduct"
  bottom: "grl55"
  top: "dc_ip155"
  param {
    #name: "ip1_1"
    lr_mult: 10
  }
  param {
    #name: "ip1_2"
    lr_mult: 20
  }
  inner_product_param {
    num_output: 1024
    weight_filler {
      type: "gaussian"
      std: 0.01
    }
    bias_filler {
      type: "constant"
    }
  }
  include: { phase: TRAIN }
}
layer {
  name: "dc_relu155"
  type: "ReLU"
  bottom: "dc_ip155"
  top: "dc_ip155"
  include: { phase: TRAIN }
}
layer {
  name: "dc_drop155"
  type: "Dropout"
  bottom: "dc_ip155"
  top: "dc_ip155"
  dropout_param {
    dropout_ratio: 0.5
  }
  include: { phase: TRAIN }
}
layer {
  name: "dc_ip255"
  type: "InnerProduct"
  bottom: "dc_ip155"
  top: "dc_ip255"
  param {
    #name: "ip2_1"
    lr_mult: 10
  }
  param {
    #name: "ip2_2"
    lr_mult: 20
  }
  inner_product_param {
    num_output: 1024
    weight_filler {
      type: "gaussian"
      std: 0.01
    }
    bias_filler {
      type: "constant"
    }
  }
  include: { phase: TRAIN }
}
layer {
  name: "dc_relu255"
  type: "ReLU"
  bottom: "dc_ip255"
  top: "dc_ip255"
  include: { phase: TRAIN }
}
layer {
  name: "dc_drop255"
  type: "Dropout"
  bottom: "dc_ip255"
  top: "dc_ip255"
  dropout_param {
    dropout_ratio: 0.5
  }
  include: { phase: TRAIN }
}
layer {
  name: "dc_ip355"
  type: "InnerProduct"
  bottom: "dc_ip255"
  top: "dc_ip355"
  param {
    lr_mult: 10
  }
  param {
    lr_mult: 20
  }
  inner_product_param {
    num_output: 1
    weight_filler {
      type: "gaussian"
      std: 0.3
    }
    bias_filler {
      type: "constant"
    }
  }
  include: { phase: TRAIN }
}
layer {
  name: "dc_loss55"
  type: "SigmoidCrossEntropyLoss"
  bottom: "dc_ip355"
  bottom: "dc_labels"
  top: "dc_loss55"
  loss_weight: 0.3
  include: { phase: TRAIN }
}
layer {
  name: "dc_ip156"
  type: "InnerProduct"
  bottom: "grl56"
  top: "dc_ip156"
  param {
    #name: "ip1_1"
    lr_mult: 10
  }
  param {
    #name: "ip1_2"
    lr_mult: 20
  }
  inner_product_param {
    num_output: 1024
    weight_filler {
      type: "gaussian"
      std: 0.01
    }
    bias_filler {
      type: "constant"
    }
  }
  include: { phase: TRAIN }
}
layer {
  name: "dc_relu156"
  type: "ReLU"
  bottom: "dc_ip156"
  top: "dc_ip156"
  include: { phase: TRAIN }
}
layer {
  name: "dc_drop156"
  type: "Dropout"
  bottom: "dc_ip156"
  top: "dc_ip156"
  dropout_param {
    dropout_ratio: 0.5
  }
  include: { phase: TRAIN }
}
layer {
  name: "dc_ip256"
  type: "InnerProduct"
  bottom: "dc_ip156"
  top: "dc_ip256"
  param {
    #name: "ip2_1"
    lr_mult: 10
  }
  param {
    #name: "ip2_2"
    lr_mult: 20
  }
  inner_product_param {
    num_output: 1024
    weight_filler {
      type: "gaussian"
      std: 0.01
    }
    bias_filler {
      type: "constant"
    }
  }
  include: { phase: TRAIN }
}
layer {
  name: "dc_relu256"
  type: "ReLU"
  bottom: "dc_ip256"
  top: "dc_ip256"
  include: { phase: TRAIN }
}
layer {
  name: "dc_drop256"
  type: "Dropout"
  bottom: "dc_ip256"
  top: "dc_ip256"
  dropout_param {
    dropout_ratio: 0.5
  }
  include: { phase: TRAIN }
}
layer {
  name: "dc_ip356"
  type: "InnerProduct"
  bottom: "dc_ip256"
  top: "dc_ip356"
  param {
    lr_mult: 10
  }
  param {
    lr_mult: 20
  }
  inner_product_param {
    num_output: 1
    weight_filler {
      type: "gaussian"
      std: 0.3
    }
    bias_filler {
      type: "constant"
    }
  }
  include: { phase: TRAIN }
}
layer {
  name: "dc_loss56"
  type: "SigmoidCrossEntropyLoss"
  bottom: "dc_ip356"
  bottom: "dc_labels"
  top: "dc_loss56"
  loss_weight: 0.3
  include: { phase: TRAIN }
}
layer {
  name: "dc_ip157"
  type: "InnerProduct"
  bottom: "grl57"
  top: "dc_ip157"
  param {
    #name: "ip1_1"
    lr_mult: 10
  }
  param {
    #name: "ip1_2"
    lr_mult: 20
  }
  inner_product_param {
    num_output: 1024
    weight_filler {
      type: "gaussian"
      std: 0.01
    }
    bias_filler {
      type: "constant"
    }
  }
  include: { phase: TRAIN }
}
layer {
  name: "dc_relu157"
  type: "ReLU"
  bottom: "dc_ip157"
  top: "dc_ip157"
  include: { phase: TRAIN }
}
layer {
  name: "dc_drop157"
  type: "Dropout"
  bottom: "dc_ip157"
  top: "dc_ip157"
  dropout_param {
    dropout_ratio: 0.5
  }
  include: { phase: TRAIN }
}
layer {
  name: "dc_ip257"
  type: "InnerProduct"
  bottom: "dc_ip157"
  top: "dc_ip257"
  param {
    #name: "ip2_1"
    lr_mult: 10
  }
  param {
    #name: "ip2_2"
    lr_mult: 20
  }
  inner_product_param {
    num_output: 1024
    weight_filler {
      type: "gaussian"
      std: 0.01
    }
    bias_filler {
      type: "constant"
    }
  }
  include: { phase: TRAIN }
}
layer {
  name: "dc_relu257"
  type: "ReLU"
  bottom: "dc_ip257"
  top: "dc_ip257"
  include: { phase: TRAIN }
}
layer {
  name: "dc_drop257"
  type: "Dropout"
  bottom: "dc_ip257"
  top: "dc_ip257"
  dropout_param {
    dropout_ratio: 0.5
  }
  include: { phase: TRAIN }
}
layer {
  name: "dc_ip357"
  type: "InnerProduct"
  bottom: "dc_ip257"
  top: "dc_ip357"
  param {
    lr_mult: 10
  }
  param {
    lr_mult: 20
  }
  inner_product_param {
    num_output: 1
    weight_filler {
      type: "gaussian"
      std: 0.3
    }
    bias_filler {
      type: "constant"
    }
  }
  include: { phase: TRAIN }
}
layer {
  name: "dc_loss57"
  type: "SigmoidCrossEntropyLoss"
  bottom: "dc_ip357"
  bottom: "dc_labels"
  top: "dc_loss57"
  loss_weight: 0.3
  include: { phase: TRAIN }
}
layer {
  name: "dc_ip158"
  type: "InnerProduct"
  bottom: "grl58"
  top: "dc_ip158"
  param {
    #name: "ip1_1"
    lr_mult: 10
  }
  param {
    #name: "ip1_2"
    lr_mult: 20
  }
  inner_product_param {
    num_output: 1024
    weight_filler {
      type: "gaussian"
      std: 0.01
    }
    bias_filler {
      type: "constant"
    }
  }
  include: { phase: TRAIN }
}
layer {
  name: "dc_relu158"
  type: "ReLU"
  bottom: "dc_ip158"
  top: "dc_ip158"
  include: { phase: TRAIN }
}
layer {
  name: "dc_drop158"
  type: "Dropout"
  bottom: "dc_ip158"
  top: "dc_ip158"
  dropout_param {
    dropout_ratio: 0.5
  }
  include: { phase: TRAIN }
}
layer {
  name: "dc_ip258"
  type: "InnerProduct"
  bottom: "dc_ip158"
  top: "dc_ip258"
  param {
    #name: "ip2_1"
    lr_mult: 10
  }
  param {
    #name: "ip2_2"
    lr_mult: 20
  }
  inner_product_param {
    num_output: 1024
    weight_filler {
      type: "gaussian"
      std: 0.01
    }
    bias_filler {
      type: "constant"
    }
  }
  include: { phase: TRAIN }
}
layer {
  name: "dc_relu258"
  type: "ReLU"
  bottom: "dc_ip258"
  top: "dc_ip258"
  include: { phase: TRAIN }
}
layer {
  name: "dc_drop258"
  type: "Dropout"
  bottom: "dc_ip258"
  top: "dc_ip258"
  dropout_param {
    dropout_ratio: 0.5
  }
  include: { phase: TRAIN }
}
layer {
  name: "dc_ip358"
  type: "InnerProduct"
  bottom: "dc_ip258"
  top: "dc_ip358"
  param {
    lr_mult: 10
  }
  param {
    lr_mult: 20
  }
  inner_product_param {
    num_output: 1
    weight_filler {
      type: "gaussian"
      std: 0.3
    }
    bias_filler {
      type: "constant"
    }
  }
  include: { phase: TRAIN }
}
layer {
  name: "dc_loss58"
  type: "SigmoidCrossEntropyLoss"
  bottom: "dc_ip358"
  bottom: "dc_labels"
  top: "dc_loss58"
  loss_weight: 0.3
  include: { phase: TRAIN }
}
layer {
  name: "dc_ip159"
  type: "InnerProduct"
  bottom: "grl59"
  top: "dc_ip159"
  param {
    #name: "ip1_1"
    lr_mult: 10
  }
  param {
    #name: "ip1_2"
    lr_mult: 20
  }
  inner_product_param {
    num_output: 1024
    weight_filler {
      type: "gaussian"
      std: 0.01
    }
    bias_filler {
      type: "constant"
    }
  }
  include: { phase: TRAIN }
}
layer {
  name: "dc_relu159"
  type: "ReLU"
  bottom: "dc_ip159"
  top: "dc_ip159"
  include: { phase: TRAIN }
}
layer {
  name: "dc_drop159"
  type: "Dropout"
  bottom: "dc_ip159"
  top: "dc_ip159"
  dropout_param {
    dropout_ratio: 0.5
  }
  include: { phase: TRAIN }
}
layer {
  name: "dc_ip259"
  type: "InnerProduct"
  bottom: "dc_ip159"
  top: "dc_ip259"
  param {
    #name: "ip2_1"
    lr_mult: 10
  }
  param {
    #name: "ip2_2"
    lr_mult: 20
  }
  inner_product_param {
    num_output: 1024
    weight_filler {
      type: "gaussian"
      std: 0.01
    }
    bias_filler {
      type: "constant"
    }
  }
  include: { phase: TRAIN }
}
layer {
  name: "dc_relu259"
  type: "ReLU"
  bottom: "dc_ip259"
  top: "dc_ip259"
  include: { phase: TRAIN }
}
layer {
  name: "dc_drop259"
  type: "Dropout"
  bottom: "dc_ip259"
  top: "dc_ip259"
  dropout_param {
    dropout_ratio: 0.5
  }
  include: { phase: TRAIN }
}
layer {
  name: "dc_ip359"
  type: "InnerProduct"
  bottom: "dc_ip259"
  top: "dc_ip359"
  param {
    lr_mult: 10
  }
  param {
    lr_mult: 20
  }
  inner_product_param {
    num_output: 1
    weight_filler {
      type: "gaussian"
      std: 0.3
    }
    bias_filler {
      type: "constant"
    }
  }
  include: { phase: TRAIN }
}
layer {
  name: "dc_loss59"
  type: "SigmoidCrossEntropyLoss"
  bottom: "dc_ip359"
  bottom: "dc_labels"
  top: "dc_loss59"
  loss_weight: 0.3
  include: { phase: TRAIN }
}
layer {
  name: "dc_ip160"
  type: "InnerProduct"
  bottom: "grl60"
  top: "dc_ip160"
  param {
    #name: "ip1_1"
    lr_mult: 10
  }
  param {
    #name: "ip1_2"
    lr_mult: 20
  }
  inner_product_param {
    num_output: 1024
    weight_filler {
      type: "gaussian"
      std: 0.01
    }
    bias_filler {
      type: "constant"
    }
  }
  include: { phase: TRAIN }
}
layer {
  name: "dc_relu160"
  type: "ReLU"
  bottom: "dc_ip160"
  top: "dc_ip160"
  include: { phase: TRAIN }
}
layer {
  name: "dc_drop160"
  type: "Dropout"
  bottom: "dc_ip160"
  top: "dc_ip160"
  dropout_param {
    dropout_ratio: 0.5
  }
  include: { phase: TRAIN }
}
layer {
  name: "dc_ip260"
  type: "InnerProduct"
  bottom: "dc_ip160"
  top: "dc_ip260"
  param {
    #name: "ip2_1"
    lr_mult: 10
  }
  param {
    #name: "ip2_2"
    lr_mult: 20
  }
  inner_product_param {
    num_output: 1024
    weight_filler {
      type: "gaussian"
      std: 0.01
    }
    bias_filler {
      type: "constant"
    }
  }
  include: { phase: TRAIN }
}
layer {
  name: "dc_relu260"
  type: "ReLU"
  bottom: "dc_ip260"
  top: "dc_ip260"
  include: { phase: TRAIN }
}
layer {
  name: "dc_drop260"
  type: "Dropout"
  bottom: "dc_ip260"
  top: "dc_ip260"
  dropout_param {
    dropout_ratio: 0.5
  }
  include: { phase: TRAIN }
}
layer {
  name: "dc_ip360"
  type: "InnerProduct"
  bottom: "dc_ip260"
  top: "dc_ip360"
  param {
    lr_mult: 10
  }
  param {
    lr_mult: 20
  }
  inner_product_param {
    num_output: 1
    weight_filler {
      type: "gaussian"
      std: 0.3
    }
    bias_filler {
      type: "constant"
    }
  }
  include: { phase: TRAIN }
}
layer {
  name: "dc_loss60"
  type: "SigmoidCrossEntropyLoss"
  bottom: "dc_ip360"
  bottom: "dc_labels"
  top: "dc_loss60"
  loss_weight: 0.3
  include: { phase: TRAIN }
}
layer {
  name: "dc_ip161"
  type: "InnerProduct"
  bottom: "grl61"
  top: "dc_ip161"
  param {
    #name: "ip1_1"
    lr_mult: 10
  }
  param {
    #name: "ip1_2"
    lr_mult: 20
  }
  inner_product_param {
    num_output: 1024
    weight_filler {
      type: "gaussian"
      std: 0.01
    }
    bias_filler {
      type: "constant"
    }
  }
  include: { phase: TRAIN }
}
layer {
  name: "dc_relu161"
  type: "ReLU"
  bottom: "dc_ip161"
  top: "dc_ip161"
  include: { phase: TRAIN }
}
layer {
  name: "dc_drop161"
  type: "Dropout"
  bottom: "dc_ip161"
  top: "dc_ip161"
  dropout_param {
    dropout_ratio: 0.5
  }
  include: { phase: TRAIN }
}
layer {
  name: "dc_ip261"
  type: "InnerProduct"
  bottom: "dc_ip161"
  top: "dc_ip261"
  param {
    #name: "ip2_1"
    lr_mult: 10
  }
  param {
    #name: "ip2_2"
    lr_mult: 20
  }
  inner_product_param {
    num_output: 1024
    weight_filler {
      type: "gaussian"
      std: 0.01
    }
    bias_filler {
      type: "constant"
    }
  }
  include: { phase: TRAIN }
}
layer {
  name: "dc_relu261"
  type: "ReLU"
  bottom: "dc_ip261"
  top: "dc_ip261"
  include: { phase: TRAIN }
}
layer {
  name: "dc_drop261"
  type: "Dropout"
  bottom: "dc_ip261"
  top: "dc_ip261"
  dropout_param {
    dropout_ratio: 0.5
  }
  include: { phase: TRAIN }
}
layer {
  name: "dc_ip361"
…
  type: "InnerProduct"
  bottom: "dc_ip170"
  top: "dc_ip270"
  param {
    #name: "ip2_1"
    lr_mult: 10
  }
  param {
    #name: "ip2_2"
    lr_mult: 20
  }
  inner_product_param {
    num_output: 1024
    weight_filler {
      type: "gaussian"
      std: 0.01
    }
    bias_filler {
      type: "constant"
    }
  }
  include: { phase: TRAIN }
}
layer {
  name: "dc_relu270"
  type: "ReLU"
  bottom: "dc_ip270"
  top: "dc_ip270"
  include: { phase: TRAIN }
}
layer {
  name: "dc_drop270"
  type: "Dropout"
  bottom: "dc_ip270"
  top: "dc_ip270"
  dropout_param {
    dropout_ratio: 0.5
  }
  include: { phase: TRAIN }
}
layer {
  name: "dc_ip370"
  type: "InnerProduct"
  bottom: "dc_ip270"
  top: "dc_ip370"
  param {
    lr_mult: 10
  }
  param {
    lr_mult: 20
  }
  inner_product_param {
    num_output: 1
    weight_filler {
      type: "gaussian"
      std: 0.3
    }
    bias_filler {
      type: "constant"
    }
  }
  include: { phase: TRAIN }
}
layer {
  name: "dc_loss70"
  type: "SigmoidCrossEntropyLoss"
  bottom: "dc_ip370"
  bottom: "dc_labels"
  top: "dc_loss70"
  loss_weight: 0.3
  include: { phase: TRAIN }
}
layer {
  name: "dc_ip171"
  type: "InnerProduct"
  bottom: "grl71"
  top: "dc_ip171"
  param {
    #name: "ip1_1"
    lr_mult: 10
  }
  param {
    #name: "ip1_2"
    lr_mult: 20
  }
  inner_product_param {
    num_output: 1024
    weight_filler {
      type: "gaussian"
      std: 0.01
    }
    bias_filler {
      type: "constant"
    }
  }
  include: { phase: TRAIN }
}
layer {
  name: "dc_relu171"
  type: "ReLU"
  bottom: "dc_ip171"
  top: "dc_ip171"
  include: { phase: TRAIN }
}
layer {
  name: "dc_drop171"
  type: "Dropout"
  bottom: "dc_ip171"
  top: "dc_ip171"
  dropout_param {
    dropout_ratio: 0.5
  }
  include: { phase: TRAIN }
}
layer {
  name: "dc_ip271"
  type: "InnerProduct"
  bottom: "dc_ip171"
  top: "dc_ip271"
  param {
    #name: "ip2_1"
    lr_mult: 10
  }
  param {
    #name: "ip2_2"
    lr_mult: 20
  }
  inner_product_param {
    num_output: 1024
    weight_filler {
      type: "gaussian"
      std: 0.01
    }
    bias_filler {
      type: "constant"
    }
  }
  include: { phase: TRAIN }
}
layer {
  name: "dc_relu271"
  type: "ReLU"
  bottom: "dc_ip271"
  top: "dc_ip271"
  include: { phase: TRAIN }
}
layer {
  name: "dc_drop271"
  type: "Dropout"
  bottom: "dc_ip271"
  top: "dc_ip271"
  dropout_param {
    dropout_ratio: 0.5
  }
  include: { phase: TRAIN }
}
layer {
  name: "dc_ip371"
  type: "InnerProduct"
  bottom: "dc_ip271"
  top: "dc_ip371"
  param {
    lr_mult: 10
  }
  param {
    lr_mult: 20
  }
  inner_product_param {
    num_output: 1
    weight_filler {
      type: "gaussian"
      std: 0.3
    }
    bias_filler {
      type: "constant"
    }
  }
  include: { phase: TRAIN }
}
layer {
  name: "dc_loss71"
  type: "SigmoidCrossEntropyLoss"
  bottom: "dc_ip371"
  bottom: "dc_labels"
  top: "dc_loss71"
  loss_weight: 0.3
  include: { phase: TRAIN }
}
layer {
  name: "dc_ip172"
  type: "InnerProduct"
  bottom: "grl72"
  top: "dc_ip172"
  param {
    #name: "ip1_1"
    lr_mult: 10
  }
  param {
    #name: "ip1_2"
    lr_mult: 20
  }
  inner_product_param {
    num_output: 1024
    weight_filler {
      type: "gaussian"
      std: 0.01
    }
    bias_filler {
      type: "constant"
    }
  }
  include: { phase: TRAIN }
}
layer {
  name: "dc_relu172"
  type: "ReLU"
  bottom: "dc_ip172"
  top: "dc_ip172"
  include: { phase: TRAIN }
}
layer {
  name: "dc_drop172"
  type: "Dropout"
  bottom: "dc_ip172"
  top: "dc_ip172"
  dropout_param {
    dropout_ratio: 0.5
  }
  include: { phase: TRAIN }
}
layer {
  name: "dc_ip272"
  type: "InnerProduct"
  bottom: "dc_ip172"
  top: "dc_ip272"
  param {
    #name: "ip2_1"
    lr_mult: 10
  }
  param {
    #name: "ip2_2"
    lr_mult: 20
  }
  inner_product_param {
    num_output: 1024
    weight_filler {
      type: "gaussian"
      std: 0.01
    }
    bias_filler {
      type: "constant"
    }
  }
  include: { phase: TRAIN }
}
layer {
  name: "dc_relu272"
  type: "ReLU"
  bottom: "dc_ip272"
  top: "dc_ip272"
  include: { phase: TRAIN }
}
layer {
  name: "dc_drop272"
  type: "Dropout"
  bottom: "dc_ip272"
  top: "dc_ip272"
  dropout_param {
    dropout_ratio: 0.5
  }
  include: { phase: TRAIN }
}
layer {
  name: "dc_ip372"
  type: "InnerProduct"
  bottom: "dc_ip272"
  top: "dc_ip372"
  param {
    lr_mult: 10
  }
  param {
    lr_mult: 20
  }
  inner_product_param {
    num_output: 1
    weight_filler {
      type: "gaussian"
      std: 0.3
    }
    bias_filler {
      type: "constant"
    }
  }
  include: { phase: TRAIN }
}
layer {
  name: "dc_loss72"
  type: "SigmoidCrossEntropyLoss"
  bottom: "dc_ip372"
  bottom: "dc_labels"
  top: "dc_loss72"
  loss_weight: 0.3
  include: { phase: TRAIN }
}
layer {
  name: "dc_ip173"
  type: "InnerProduct"
  bottom: "grl73"
  top: "dc_ip173"
  param {
    #name: "ip1_1"
    lr_mult: 10
  }
  param {
    #name: "ip1_2"
    lr_mult: 20
  }
  inner_product_param {
    num_output: 1024
    weight_filler {
      type: "gaussian"
      std: 0.01
    }
    bias_filler {
      type: "constant"
    }
  }
  include: { phase: TRAIN }
}
layer {
  name: "dc_relu173"
  type: "ReLU"
  bottom: "dc_ip173"
  top: "dc_ip173"
  include: { phase: TRAIN }
}
layer {
  name: "dc_drop173"
  type: "Dropout"
  bottom: "dc_ip173"
  top: "dc_ip173"
  dropout_param {
    dropout_ratio: 0.5
  }
  include: { phase: TRAIN }
}
layer {
  name: "dc_ip273"
  type: "InnerProduct"
  bottom: "dc_ip173"
  top: "dc_ip273"
  param {
    #name: "ip2_1"
    lr_mult: 10
  }
  param {
    #name: "ip2_2"
    lr_mult: 20
  }
  inner_product_param {
    num_output: 1024
    weight_filler {
      type: "gaussian"
      std: 0.01
    }
    bias_filler {
      type: "constant"
    }
  }
  include: { phase: TRAIN }
}
layer {
  name: "dc_relu273"
  type: "ReLU"
  bottom: "dc_ip273"
  top: "dc_ip273"
  include: { phase: TRAIN }
}
layer {
  name: "dc_drop273"
  type: "Dropout"
  bottom: "dc_ip273"
  top: "dc_ip273"
  dropout_param {
    dropout_ratio: 0.5
  }
  include: { phase: TRAIN }
}
layer {
  name: "dc_ip373"
  type: "InnerProduct"
  bottom: "dc_ip273"
  top: "dc_ip373"
  param {
    lr_mult: 10
  }
  param {
    lr_mult: 20
  }
  inner_product_param {
    num_output: 1
    weight_filler {
      type: "gaussian"
      std: 0.3
    }
    bias_filler {
      type: "constant"
    }
  }
  include: { phase: TRAIN }
}
layer {
  name: "dc_loss73"
  type: "SigmoidCrossEntropyLoss"
  bottom: "dc_ip373"
  bottom: "dc_labels"
  top: "dc_loss73"
  loss_weight: 0.3
  include: { phase: TRAIN }
}
layer {
  name: "dc_ip174"
  type: "InnerProduct"
  bottom: "grl74"
  top: "dc_ip174"
  param {
    #name: "ip1_1"
    lr_mult: 10
  }
  param {
    #name: "ip1_2"
    lr_mult: 20
  }
  inner_product_param {
    num_output: 1024
    weight_filler {
      type: "gaussian"
      std: 0.01
    }
    bias_filler {
      type: "constant"
    }
  }
  include: { phase: TRAIN }
}
layer {
  name: "dc_relu174"
  type: "ReLU"
  bottom: "dc_ip174"
  top: "dc_ip174"
  include: { phase: TRAIN }
}
layer {
  name: "dc_drop174"
  type: "Dropout"
  bottom: "dc_ip174"
  top: "dc_ip174"
  dropout_param {
    dropout_ratio: 0.5
  }
  include: { phase: TRAIN }
}
layer {
  name: "dc_ip274"
  type: "InnerProduct"
  bottom: "dc_ip174"
  top: "dc_ip274"
  param {
    #name: "ip2_1"
    lr_mult: 10
  }
  param {
    #name: "ip2_2"
    lr_mult: 20
  }
  inner_product_param {
    num_output: 1024
    weight_filler {
      type: "gaussian"
      std: 0.01
    }
    bias_filler {
      type: "constant"
    }
  }
  include: { phase: TRAIN }
}
layer {
  name: "dc_relu274"
  type: "ReLU"
  bottom: "dc_ip274"
  top: "dc_ip274"
  include: { phase: TRAIN }
}
layer {
  name: "dc_drop274"
  type: "Dropout"
  bottom: "dc_ip274"
  top: "dc_ip274"
  dropout_param {
    dropout_ratio: 0.5
  }
  include: { phase: TRAIN }
}
layer {
  name: "dc_ip374"
  type: "InnerProduct"
  bottom: "dc_ip274"
  top: "dc_ip374"
  param {
    lr_mult: 10
  }
  param {
    lr_mult: 20
  }
  inner_product_param {
    num_output: 1
    weight_filler {
      type: "gaussian"
      std: 0.3
    }
    bias_filler {
      type: "constant"
    }
  }
  include: { phase: TRAIN }
}
layer {
  name: "dc_loss74"
  type: "SigmoidCrossEntropyLoss"
  bottom: "dc_ip374"
  bottom: "dc_labels"
  top: "dc_loss74"
  loss_weight: 0.3
  include: { phase: TRAIN }
}
layer {
  name: "dc_ip175"
  type: "InnerProduct"
  bottom: "grl75"
  top: "dc_ip175"
  param {
    #name: "ip1_1"
    lr_mult: 10
  }
  param {
    #name: "ip1_2"
    lr_mult: 20
  }
  inner_product_param {
    num_output: 1024
    weight_filler {
      type: "gaussian"
      std: 0.01
    }
    bias_filler {
      type: "constant"
    }
  }
  include: { phase: TRAIN }
}
layer {
  name: "dc_relu175"
  type: "ReLU"
  bottom: "dc_ip175"
  top: "dc_ip175"
  include: { phase: TRAIN }
}
layer {
  name: "dc_drop175"
  type: "Dropout"
  bottom: "dc_ip175"
  top: "dc_ip175"
  dropout_param {
    dropout_ratio: 0.5
  }
  include: { phase: TRAIN }
}
layer {
  name: "dc_ip275"
  type: "InnerProduct"
  bottom: "dc_ip175"
  top: "dc_ip275"
  param {
    #name: "ip2_1"
    lr_mult: 10
  }
  param {
    #name: "ip2_2"
    lr_mult: 20
  }
  inner_product_param {
    num_output: 1024
    weight_filler {
      type: "gaussian"
      std: 0.01
    }
    bias_filler {
      type: "constant"
    }
  }
  include: { phase: TRAIN }
}
layer {
  name: "dc_relu275"
  type: "ReLU"
  bottom: "dc_ip275"
  top: "dc_ip275"
  include: { phase: TRAIN }
}
layer {
  name: "dc_drop275"
  type: "Dropout"
  bottom: "dc_ip275"
  top: "dc_ip275"
  dropout_param {
    dropout_ratio: 0.5
  }
  include: { phase: TRAIN }
}
layer {
  name: "dc_ip375"
  type: "InnerProduct"
  bottom: "dc_ip275"
  top: "dc_ip375"
  param {
    lr_mult: 10
  }
  param {
    lr_mult: 20
  }
  inner_product_param {
    num_output: 1
    weight_filler {
      type: "gaussian"
      std: 0.3
    }
    bias_filler {
      type: "constant"
    }
  }
  include: { phase: TRAIN }
}
layer {
  name: "dc_loss75"
  type: "SigmoidCrossEntropyLoss"
  bottom: "dc_ip375"
  bottom: "dc_labels"
  top: "dc_loss75"
  loss_weight: 0.3
  include: { phase: TRAIN }
}
layer {
  name: "dc_ip176"
  type: "InnerProduct"
  bottom: "grl76"
  top: "dc_ip176"
  param {
    #name: "ip1_1"
    lr_mult: 10
  }
  param {
    #name: "ip1_2"
    lr_mult: 20
  }
  inner_product_param {
    num_output: 1024
    weight_filler {
      type: "gaussian"
      std: 0.01
    }
    bias_filler {
      type: "constant"
    }
  }
  include: { phase: TRAIN }
}
layer {
  name: "dc_relu176"
  type: "ReLU"
  bottom: "dc_ip176"
  top: "dc_ip176"
  include: { phase: TRAIN }
}
layer {
  name: "dc_drop176"
  type: "Dropout"
  bottom: "dc_ip176"
  top: "dc_ip176"
  dropout_param {
    dropout_ratio: 0.5
  }
  include: { phase: TRAIN }
}
layer {
  name: "dc_ip276"
  type: "InnerProduct"
  bottom: "dc_ip176"
  top: "dc_ip276"
  param {
    #name: "ip2_1"
    lr_mult: 10
  }
  param {
    #name: "ip2_2"
    lr_mult: 20
  }
  inner_product_param {
    num_output: 1024
    weight_filler {
      type: "gaussian"
      std: 0.01
    }
    bias_filler {
      type: "constant"
    }
  }
  include: { phase: TRAIN }
}
layer {
  name: "dc_relu276"
  type: "ReLU"
  bottom: "dc_ip276"
  top: "dc_ip276"
  include: { phase: TRAIN }
}
layer {
  name: "dc_drop276"
  type: "Dropout"
  bottom: "dc_ip276"
  top: "dc_ip276"
  dropout_param {
    dropout_ratio: 0.5
  }
  include: { phase: TRAIN }
}
layer {
  name: "dc_ip376"
  type: "InnerProduct"
  bottom: "dc_ip276"
  top: "dc_ip376"
  param {
    lr_mult: 10
  }
  param {
    lr_mult: 20
  }
  inner_product_param {
    num_output: 1
    weight_filler {
      type: "gaussian"
      std: 0.3
    }
    bias_filler {
      type: "constant"
    }
  }
  include: { phase: TRAIN }
}
layer {
  name: "dc_loss76"
  type: "SigmoidCrossEntropyLoss"
  bottom: "dc_ip376"
  bottom: "dc_labels"
  top: "dc_loss76"
  loss_weight: 0.3
  include: { phase: TRAIN }
}
layer {
  name: "dc_ip177"
  type: "InnerProduct"
  bottom: "grl77"
  top: "dc_ip177"
  param {
    #name: "ip1_1"
    lr_mult: 10
  }
  param {
    #name: "ip1_2"
    lr_mult: 20
  }
  inner_product_param {
    num_output: 1024
    weight_filler {
      type: "gaussian"
      std: 0.01
    }
    bias_filler {
      type: "constant"
    }
  }
  include: { phase: TRAIN }
}
layer {
  name: "dc_relu177"
  type: "ReLU"
  bottom: "dc_ip177"
  top: "dc_ip177"
  include: { phase: TRAIN }
}
layer {
  name: "dc_drop177"
  type: "Dropout"
  bottom: "dc_ip177"
  top: "dc_ip177"
  dropout_param {
    dropout_ratio: 0.5
  }
  include: { phase: TRAIN }
}
layer {
  name: "dc_ip277"
  type: "InnerProduct"
  bottom: "dc_ip177"
  top: "dc_ip277"
  param {
    #name: "ip2_1"
    lr_mult: 10
  }
  param {
    #name: "ip2_2"
    lr_mult: 20
  }
  inner_product_param {
    num_output: 1024
    weight_filler {
      type: "gaussian"
      std: 0.01
    }
    bias_filler {
      type: "constant"
    }
  }
  include: { phase: TRAIN }
}
layer {
  name: "dc_relu277"
  type: "ReLU"
  bottom: "dc_ip277"
  top: "dc_ip277"
  include: { phase: TRAIN }
}
layer {
  name: "dc_drop277"
  type: "Dropout"
  bottom: "dc_ip277"
  top: "dc_ip277"
  dropout_param {
    dropout_ratio: 0.5
  }
  include: { phase: TRAIN }
}
layer {
  name: "dc_ip377"
  type: "InnerProduct"
  bottom: "dc_ip277"
  top: "dc_ip377"
  param {
    lr_mult: 10
  }
  param {
    lr_mult: 20
  }
  inner_product_param {
    num_output: 1
    weight_filler {
      type: "gaussian"
      std: 0.3
    }
    bias_filler {
      type: "constant"
    }
  }
  include: { phase: TRAIN }
}
layer {
  name: "dc_loss77"
  type: "SigmoidCrossEntropyLoss"
  bottom: "dc_ip377"
  bottom: "dc_labels"
  top: "dc_loss77"
  loss_weight: 0.3
  include: { phase: TRAIN }
}
layer {
  name: "dc_ip178"
  type: "InnerProduct"
  bottom: "grl78"
  top: "dc_ip178"
  param {
    #name: "ip1_1"
    lr_mult: 10
  }
  param {
    #name: "ip1_2"
    lr_mult: 20
  }
  inner_product_param {
    num_output: 1024
    weight_filler {
      type: "gaussian"
      std: 0.01
    }
    bias_filler {
      type: "constant"
    }
  }
  include: { phase: TRAIN }
}
layer {
  name: "dc_relu178"
  type: "ReLU"
  bottom: "dc_ip178"
  top: "dc_ip178"
  include: { phase: TRAIN }
}
layer {
  name: "dc_drop178"
  type: "Dropout"
  bottom: "dc_ip178"
  top: "dc_ip178"
  dropout_param {
    dropout_ratio: 0.5
  }
  include: { phase: TRAIN }
}
layer {
  name: "dc_ip278"
  type: "InnerProduct"
  bottom: "dc_ip178"
  top: "dc_ip278"
  param {
    #name: "ip2_1"
    lr_mult: 10
  }
  param {
    #name: "ip2_2"
    lr_mult: 20
  }
  inner_product_param {
    num_output: 1024
    weight_filler {
      type: "gaussian"
      std: 0.01
    }
    bias_filler {
      type: "constant"
    }
  }
  include: { phase: TRAIN }
}
layer {
  name: "dc_relu278"
  type: "ReLU"
  bottom: "dc_ip278"
  top: "dc_ip278"
  include: { phase: TRAIN }
}
layer {
  name: "dc_drop278"
  type: "Dropout"
  bottom: "dc_ip278"
  top: "dc_ip278"
  dropout_param {
    dropout_ratio: 0.5
  }
  include: { phase: TRAIN }
}
layer {
  name: "dc_ip378"
  type: "InnerProduct"
  bottom: "dc_ip278"
  top: "dc_ip378"
  param {
    lr_mult: 10
  }
  param {
    lr_mult: 20
  }
  inner_product_param {
    num_output: 1
    weight_filler {
      type: "gaussian"
      std: 0.3
    }
    bias_filler {
      type: "constant"
    }
  }
  include: { phase: TRAIN }
}
layer {
  name: "dc_loss78"
  type: "SigmoidCrossEntropyLoss"
  bottom: "dc_ip378"
  bottom: "dc_labels"
  top: "dc_loss78"
  loss_weight: 0.3
  include: { phase: TRAIN }
}
layer {
  name: "dc_ip179"
  type: "InnerProduct"
  bottom: "grl79"
  top: "dc_ip179"
  param {
    #name: "ip1_1"
    lr_mult: 10
  }
  param {
    #name: "ip1_2"
    lr_mult: 20
  }
  inner_product_param {
    num_output: 1024
    weight_filler {
      type: "gaussian"
      std: 0.01
    }
    bias_filler {
      type: "constant"
    }
  }
  include: { phase: TRAIN }
}
layer {
  name: "dc_relu179"
  type: "ReLU"
  bottom: "dc_ip179"
  top: "dc_ip179"
  include: { phase: TRAIN }
}
layer {
  name: "dc_drop179"
  type: "Dropout"
  bottom: "dc_ip179"
  top: "dc_ip179"
  dropout_param {
    dropout_ratio: 0.5
  }
  include: { phase: TRAIN }
}
layer {
  name: "dc_ip279"
  type: "InnerProduct"
  bottom: "dc_ip179"
  top: "dc_ip279"
  param {
    #name: "ip2_1"
    lr_mult: 10
  }
  param {
    #name: "ip2_2"
    lr_mult: 20
  }
  inner_product_param {
    num_output: 1024
    weight_filler {
      type: "gaussian"
      std: 0.01
    }
    bias_filler {
      type: "constant"
    }
  }
  include: { phase: TRAIN }
}
layer {
  name: "dc_relu279"
  type: "ReLU"
  bottom: "dc_ip279"
  top: "dc_ip279"
  include: { phase: TRAIN }
}
layer {
  name: "dc_drop279"
  type: "Dropout"
  bottom: "dc_ip279"
  top: "dc_ip279"
  dropout_param {
    dropout_ratio: 0.5
  }
  include: { phase: TRAIN }
}
layer {
  name: "dc_ip379"
  type: "InnerProduct"
  bottom: "dc_ip279"
  top: "dc_ip379"
  param {
    lr_mult: 10
  }
  param {
    lr_mult: 20
  }
  inner_product_param {
    num_output: 1
    weight_filler {
      type: "gaussian"
      std: 0.3
    }
    bias_filler {
      type: "constant"
    }
  }
  include: { phase: TRAIN }
}
layer {
  name: "dc_loss79"
  type: "SigmoidCrossEntropyLoss"
  bottom: "dc_ip379"
  bottom: "dc_labels"
  top: "dc_loss79"
  loss_weight: 0.3
  include: { phase: TRAIN }
}
layer {
  name: "dc_ip180"
  type: "InnerProduct"
  bottom: "grl80"
  top: "dc_ip180"
  param {
    #name: "ip1_1"
    lr_mult: 10
  }
  param {
    #name: "ip1_2"
    lr_mult: 20
  }
  inner_product_param {
    num_output: 1024
    weight_filler {
      type: "gaussian"
      std: 0.01
    }
    bias_filler {
      type: "constant"
    }
  }
  include: { phase: TRAIN }
}
layer {
  name: "dc_relu180"
  type: "ReLU"
  bottom: "dc_ip180"
  top: "dc_ip180"
  include: { phase: TRAIN }
}
layer {
  name: "dc_drop180"
  type: "Dropout"
  bottom: "dc_ip180"
  top: "dc_ip180"
  dropout_param {
    dropout_ratio: 0.5
  }
  include: { phase: TRAIN }
}
layer {
  name: "dc_ip280"
  type: "InnerProduct"
  bottom: "dc_ip180"
  top: "dc_ip280"
  param {
    #name: "ip2_1"
    lr_mult: 10
  }
  param {
    #name: "ip2_2"
    lr_mult: 20
  }
  inner_product_param {
    num_output: 1024
    weight_filler {
      type: "gaussian"
      std: 0.01
    }
    bias_filler {
      type: "constant"
    }
  }
  include: { phase: TRAIN }
}
layer {
  name: "dc_relu280"
  type: "ReLU"
  bottom: "dc_ip280"
  top: "dc_ip280"
  include: { phase: TRAIN }
}
layer {
  name: "dc_drop280"
  type: "Dropout"
  bottom: "dc_ip280"
  top: "dc_ip280"
  dropout_param {
    dropout_ratio: 0.5
  }
  include: { phase: TRAIN }
}
layer {
  name: "dc_ip380"
  type: "InnerProduct"
  bottom: "dc_ip280"
  top: "dc_ip380"
  param {
    lr_mult: 10
  }
  param {
    lr_mult: 20
  }
  inner_product_param {
    num_output: 1
    weight_filler {
      type: "gaussian"
      std: 0.3
    }
    bias_filler {
      type: "constant"
    }
  }
  include: { phase: TRAIN }
}
layer {
  name: "dc_loss80"
  type: "SigmoidCrossEntropyLoss"
  bottom: "dc_ip380"
  bottom: "dc_labels"
  top: "dc_loss80"
  loss_weight: 0.3
  include: { phase: TRAIN }
}
layer {
  name: "dc_ip181"
  type: "InnerProduct"
  bottom: "grl81"
  top: "dc_ip181"
  param {
    #name: "ip1_1"
    lr_mult: 10
  }
  param {
    #name: "ip1_2"
    lr_mult: 20
  }
  inner_product_param {
    num_output: 1024
    weight_filler {
      type: "gaussian"
      std: 0.01
    }
    bias_filler {
      type: "constant"
    }
  }
  include: { phase: TRAIN }
}
layer {
  name: "dc_relu181"
  type: "ReLU"
  bottom: "dc_ip181"
  top: "dc_ip181"
  include: { phase: TRAIN }
}
layer {
  name: "dc_drop181"
  type: "Dropout"
  bottom: "dc_ip181"
  top: "dc_ip181"
  dropout_param {
    dropout_ratio: 0.5
  }
  include: { phase: TRAIN }
}
layer {
  name: "dc_ip281"
  type: "InnerProduct"
  bottom: "dc_ip181"
  top: "dc_ip281"
  param {
    #name: "ip2_1"
    lr_mult: 10
  }
  param {
    #name: "ip2_2"
    lr_mult: 20
  }
  inner_product_param {
    num_output: 1024
    weight_filler {
      type: "gaussian"
      std: 0.01
    }
    bias_filler {
      type: "constant"
    }
  }
  include: { phase: TRAIN }
}
layer {
  name: "dc_relu281"
  type: "ReLU"
  bottom: "dc_ip281"
  top: "dc_ip281"
  include: { phase: TRAIN }
}
layer {
  name: "dc_drop281"
  type: "Dropout"
  bottom: "dc_ip281"
  top: "dc_ip281"
  dropout_param {
    dropout_ratio: 0.5
  }
  include: { phase: TRAIN }
}
layer {
  name: "dc_ip381"
  type: "InnerProduct"
  bottom: "dc_ip281"
  top: "dc_ip381"
  param {
    lr_mult: 10
  }
  param {
    lr_mult: 20
  }
  inner_product_param {
    num_output: 1
    weight_filler {
      type: "gaussian"
      std: 0.3
    }
    bias_filler {
      type: "constant"
    }
  }
  include: { phase: TRAIN }
}
layer {
  name: "dc_loss81"
  type: "SigmoidCrossEntropyLoss"
  bottom: "dc_ip381"
  bottom: "dc_labels"
  top: "dc_loss81"
  loss_weight: 0.3
  include: { phase: TRAIN }
}
layer {
  name: "dc_ip182"
  type: "InnerProduct"
  bottom: "grl82"
  top: "dc_ip182"
  param {
    #name: "ip1_1"
    lr_mult: 10
  }
  param {
    #name: "ip1_2"
    lr_mult: 20
  }
  inner_product_param {
    num_output: 1024
    weight_filler {
      type: "gaussian"
      std: 0.01
    }
    bias_filler {
      type: "constant"
    }
  }
  include: { phase: TRAIN }
}
layer {
  name: "dc_relu182"
  type: "ReLU"
  bottom: "dc_ip182"
  top: "dc_ip182"
  include: { phase: TRAIN }
}
layer {
  name: "dc_drop182"
  type: "Dropout"
  bottom: "dc_ip182"
  top: "dc_ip182"
  dropout_param {
    dropout_ratio: 0.5
  }
  include: { phase: TRAIN }
}
layer {
  name: "dc_ip282"
  type: "InnerProduct"
  bottom: "dc_ip182"
  top: "dc_ip282"
  param {
    #name: "ip2_1"
    lr_mult: 10
  }
  param {
    #name: "ip2_2"
    lr_mult: 20
  }
  inner_product_param {
    num_output: 1024
    weight_filler {
      type: "gaussian"
      std: 0.01
    }
    bias_filler {
      type: "constant"
    }
  }
  include: { phase: TRAIN }
}
layer {
  name: "dc_relu282"
  type: "ReLU"
  bottom: "dc_ip282"
  top: "dc_ip282"
  include: { phase: TRAIN }
}
layer {
  name: "dc_drop282"
  type: "Dropout"
  bottom: "dc_ip282"
  top: "dc_ip282"
  dropout_param {
    dropout_ratio: 0.5
  }
  include: { phase: TRAIN }
}
layer {
  name: "dc_ip382"
  type: "InnerProduct"
  bottom: "dc_ip282"
  top: "dc_ip382"
  param {
    lr_mult: 10
  }
  param {
    lr_mult: 20
  }
  inner_product_param {
    num_output: 1
    weight_filler {
      type: "gaussian"
      std: 0.3
    }
    bias_filler {
      type: "constant"
    }
  }
  include: { phase: TRAIN }
}
layer {
  name: "dc_loss82"
  type: "SigmoidCrossEntropyLoss"
  bottom: "dc_ip382"
  bottom: "dc_labels"
  top: "dc_loss82"
  loss_weight: 0.3
  include: { phase: TRAIN }
}
layer {
  name: "dc_ip183"
  type: "InnerProduct"
  bottom: "grl83"
  top: "dc_ip183"
  param {
    #name: "ip1_1"
    lr_mult: 10
  }
  param {
    #name: "ip1_2"
    lr_mult: 20
  }
  inner_product_param {
    num_output: 1024
    weight_filler {
      type: "gaussian"
      std: 0.01
    }
    bias_filler {
      type: "constant"
    }
  }
  include: { phase: TRAIN }
}
layer {
  name: "dc_relu183"
  type: "ReLU"
  bottom: "dc_ip183"
  top: "dc_ip183"
  include: { phase: TRAIN }
}
layer {
  name: "dc_drop183"
  type: "Dropout"
  bottom: "dc_ip183"
  top: "dc_ip183"
  dropout_param {
    dropout_ratio: 0.5
  }
  include: { phase: TRAIN }
}
layer {
  name: "dc_ip283"
  type: "InnerProduct"
  bottom: "dc_ip183"
  top: "dc_ip283"
  param {
    #name: "ip2_1"
    lr_mult: 10
  }
  param {
    #name: "ip2_2"
    lr_mult: 20
  }
  inner_product_param {
    num_output: 1024
    weight_filler {
      type: "gaussian"
      std: 0.01
    }
    bias_filler {
      type: "constant"
    }
  }
  include: { phase: TRAIN }
}
layer {
  name: "dc_relu283"
  type: "ReLU"
  bottom: "dc_ip283"
  top: "dc_ip283"
  include: { phase: TRAIN }
}
layer {
  name: "dc_drop283"
  type: "Dropout"
  bottom: "dc_ip283"
  top: "dc_ip283"
  dropout_param {
    dropout_ratio: 0.5
  }
  include: { phase: TRAIN }
}
layer {
  name: "dc_ip383"
  type: "InnerProduct"
  bottom: "dc_ip283"
  top: "dc_ip383"
  param {
    lr_mult: 10
  }
  param {
    lr_mult: 20
  }
  inner_product_param {
    num_output: 1
    weight_filler {
      type: "gaussian"
      std: 0.3
    }
    bias_filler {
      type: "constant"
    }
  }
  include: { phase: TRAIN }
}
layer {
  name: "dc_loss83"
  type: "SigmoidCrossEntropyLoss"
  bottom: "dc_ip383"
  bottom: "dc_labels"
  top: "dc_loss83"
  loss_weight: 0.3
  include: { phase: TRAIN }
}
layer {
  name: "dc_ip184"
  type: "InnerProduct"
  bottom: "grl84"
  top: "dc_ip184"
  param {
    #name: "ip1_1"
    lr_mult: 10
  }
  param {
    #name: "ip1_2"
    lr_mult: 20
  }
  inner_product_param {
    num_output: 1024
    weight_filler {
      type: "gaussian"
      std: 0.01
    }
    bias_filler {
      type: "constant"
    }
  }
  include: { phase: TRAIN }
}
layer {
  name: "dc_relu184"
  type: "ReLU"
  bottom: "dc_ip184"
  top: "dc_ip184"
  include: { phase: TRAIN }
}
layer {
  name: "dc_drop184"
  type: "Dropout"
  bottom: "dc_ip184"
  top: "dc_ip184"
  dropout_param {
    dropout_ratio: 0.5
  }
  include: { phase: TRAIN }
}
layer {
  name: "dc_ip284"
  type: "InnerProduct"
  bottom: "dc_ip184"
  top: "dc_ip284"
  param {
    #name: "ip2_1"
    lr_mult: 10
  }
  param {
    #name: "ip2_2"
    lr_mult: 20
  }
  inner_product_param {
    num_output: 1024
    weight_filler {
      type: "gaussian"
      std: 0.01
    }
    bias_filler {
      type: "constant"
    }
  }
  include: { phase: TRAIN }
}
layer {
  name: "dc_relu284"
  type: "ReLU"
  bottom: "dc_ip284"
  top: "dc_ip284"
  include: { phase: TRAIN }
}
layer {
  name: "dc_drop284"
  type: "Dropout"
  bottom: "dc_ip284"
  top: "dc_ip284"
  dropout_param {
    dropout_ratio: 0.5
  }
  include: { phase: TRAIN }
}
layer {
  name: "dc_ip384"
  type: "InnerProduct"
  bottom: "dc_ip284"
  top: "dc_ip384"
  param {
    lr_mult: 10
  }
  param {
    lr_mult: 20
  }
  inner_product_param {
    num_output: 1
    weight_filler {
      type: "gaussian"
      std: 0.3
    }
    bias_filler {
      type: "constant"
    }
  }
  include: { phase: TRAIN }
}
layer {
  name: "dc_loss84"
  type: "SigmoidCrossEntropyLoss"
  bottom: "dc_ip384"
  bottom: "dc_labels"
  top: "dc_loss84"
  loss_weight: 0.3
  include: { phase: TRAIN }
}
layer {
  name: "dc_ip185"
  type: "InnerProduct"
  bottom: "grl85"
  top: "dc_ip185"
  param {
    #name: "ip1_1"
    lr_mult: 10
  }
  param {
    #name: "ip1_2"
    lr_mult: 20
  }
  inner_product_param {
    num_output: 1024
    weight_filler {
      type: "gaussian"
      std: 0.01
    }
    bias_filler {
      type: "constant"
    }
  }
  include: { phase: TRAIN }
}
layer {
  name: "dc_relu185"
  type: "ReLU"
  bottom: "dc_ip185"
  top: "dc_ip185"
  include: { phase: TRAIN }
}
layer {
  name: "dc_drop185"
  type: "Dropout"
  bottom: "dc_ip185"
  top: "dc_ip185"
  dropout_param {
    dropout_ratio: 0.5
  }
  include: { phase: TRAIN }
}
layer {
  name: "dc_ip285"
  type: "InnerProduct"
  bottom: "dc_ip185"
  top: "dc_ip285"
  param {
    #name: "ip2_1"
    lr_mult: 10
  }
  param {
    #name: "ip2_2"
    lr_mult: 20
  }
  inner_product_param {
    num_output: 1024
    weight_filler {
      type: "gaussian"
      std: 0.01
    }
    bias_filler {
      type: "constant"
    }
  }
  include: { phase: TRAIN }
}
layer {
  name: "dc_relu285"
  type: "ReLU"
  bottom: "dc_ip285"
  top: "dc_ip285"
  include: { phase: TRAIN }
}
layer {
  name: "dc_drop285"
  type: "Dropout"
  bottom: "dc_ip285"
  top: "dc_ip285"
  dropout_param {
    dropout_ratio: 0.5
  }
  include: { phase: TRAIN }
}
layer {
  name: "dc_ip385"
  type: "InnerProduct"
  bottom: "dc_ip285"
  top: "dc_ip385"
  param {
    lr_mult: 10
  }
  param {
    lr_mult: 20
  }
  inner_product_param {
    num_output: 1
    weight_filler {
      type: "gaussian"
      std: 0.3
    }
    bias_filler {
      type: "constant"
    }
  }
  include: { phase: TRAIN }
}
layer {
  name: "dc_loss85"
  type: "SigmoidCrossEntropyLoss"
  bottom: "dc_ip385"
  bottom: "dc_labels"
  top: "dc_loss85"
  loss_weight: 0.3
  include: { phase: TRAIN }
}
layer {
  name: "dc_ip186"
  type: "InnerProduct"
  bottom: "grl86"
  top: "dc_ip186"
  param {
    #name: "ip1_1"
    lr_mult: 10
  }
  param {
    #name: "ip1_2"
    lr_mult: 20
  }
  inner_product_param {
    num_output: 1024
    weight_filler {
      type: "gaussian"
      std: 0.01
    }
    bias_filler {
      type: "constant"
    }
  }
  include: { phase: TRAIN }
}
layer {
  name: "dc_relu186"
  type: "ReLU"
  bottom: "dc_ip186"
  top: "dc_ip186"
  include: { phase: TRAIN }
}
layer {
  name: "dc_drop186"
  type: "Dropout"
  bottom: "dc_ip186"
  top: "dc_ip186"
  dropout_param {
    dropout_ratio: 0.5
  }
  include: { phase: TRAIN }
}
layer {
  name: "dc_ip286"
  type: "InnerProduct"
  bottom: "dc_ip186"
  top: "dc_ip286"
  param {
    #name: "ip2_1"
    lr_mult: 10
  }
  param {
    #name: "ip2_2"
    lr_mult: 20
  }
  inner_product_param {
    num_output: 1024
    weight_filler {
      type: "gaussian"
      std: 0.01
    }
    bias_filler {
      type: "constant"
    }
  }
  include: { phase: TRAIN }
}
layer {
  name: "dc_relu286"
  type: "ReLU"
  bottom: "dc_ip286"
  top: "dc_ip286"
  include: { phase: TRAIN }
}
layer {
  name: "dc_drop286"
  type: "Dropout"
  bottom: "dc_ip286"
  top: "dc_ip286"
  dropout_param {
    dropout_ratio: 0.5
  }
  include: { phase: TRAIN }
}
layer {
  name: "dc_ip386"
  type: "InnerProduct"
  bottom: "dc_ip286"
  top: "dc_ip386"
  param {
    lr_mult: 10
  }
  param {
    lr_mult: 20
  }
  inner_product_param {
    num_output: 1
    weight_filler {
      type: "gaussian"
      std: 0.3
    }
    bias_filler {
      type: "constant"
    }
  }
  include: { phase: TRAIN }
}
layer {
  name: "dc_loss86"
  type: "SigmoidCrossEntropyLoss"
  bottom: "dc_ip386"
  bottom: "dc_labels"
  top: "dc_loss86"
  loss_weight: 0.3
  include: { phase: TRAIN }
}
layer {
  name: "dc_ip187"
  type: "InnerProduct"
  bottom: "grl87"
  top: "dc_ip187"
  param {
    #name: "ip1_1"
    lr_mult: 10
  }
  param {
    #name: "ip1_2"
    lr_mult: 20
  }
  inner_product_param {
    num_output: 1024
    weight_filler {
      type: "gaussian"
      std: 0.01
    }
    bias_filler {
      type: "constant"
    }
  }
  include: { phase: TRAIN }
}
layer {
  name: "dc_relu187"
  type: "ReLU"
  bottom: "dc_ip187"
  top: "dc_ip187"
  include: { phase: TRAIN }
}
layer {
  name: "dc_drop187"
  type: "Dropout"
  bottom: "dc_ip187"
  top: "dc_ip187"
  dropout_param {
    dropout_ratio: 0.5
  }
  include: { phase: TRAIN }
}
layer {
  name: "dc_ip287"
  type: "InnerProduct"
  bottom: "dc_ip187"
  top: "dc_ip287"
  param {
    #name: "ip2_1"
    lr_mult: 10
  }
  param {
    #name: "ip2_2"
    lr_mult: 20
  }
  inner_product_param {
    num_output: 1024
    weight_filler {
      type: "gaussian"
      std: 0.01
    }
    bias_filler {
      type: "constant"
    }
  }
  include: { phase: TRAIN }
}
layer {
  name: "dc_relu287"
  type: "ReLU"
  bottom: "dc_ip287"
  top: "dc_ip287"
  include: { phase: TRAIN }
}
layer {
  name: "dc_drop287"
  type: "Dropout"
  bottom: "dc_ip287"
  top: "dc_ip287"
  dropout_param {
    dropout_ratio: 0.5
  }
  include: { phase: TRAIN }
}
layer {
  name: "dc_ip387"
  type: "InnerProduct"
  bottom: "dc_ip287"
  top: "dc_ip387"
  param {
    lr_mult: 10
  }
  param {
    lr_mult: 20
  }
  inner_product_param {
    num_output: 1
    weight_filler {
      type: "gaussian"
      std: 0.3
    }
    bias_filler {
      type: "constant"
    }
  }
  include: { phase: TRAIN }
}
layer {
  name: "dc_loss87"
  type: "SigmoidCrossEntropyLoss"
  bottom: "dc_ip387"
  bottom: "dc_labels"
  top: "dc_loss87"
  loss_weight: 0.3
  include: { phase: TRAIN }
}
layer {
  name: "dc_ip188"
  type: "InnerProduct"
  bottom: "grl88"
  top: "dc_ip188"
  param {
    #name: "ip1_1"
    lr_mult: 10
  }
  param {
    #name: "ip1_2"
    lr_mult: 20
  }
  inner_product_param {
    num_output: 1024
    weight_filler {
      type: "gaussian"
      std: 0.01
    }
    bias_filler {
      type: "constant"
    }
  }
  include: { phase: TRAIN }
}
layer {
  name: "dc_relu188"
  type: "ReLU"
  bottom: "dc_ip188"
  top: "dc_ip188"
  include: { phase: TRAIN }
}
layer {
  name: "dc_drop188"
  type: "Dropout"
  bottom: "dc_ip188"
  top: "dc_ip188"
  dropout_param {
    dropout_ratio: 0.5
  }
  include: { phase: TRAIN }
}
layer {
  name: "dc_ip288"
  type: "InnerProduct"
  bottom: "dc_ip188"
  top: "dc_ip288"
  param {
    #name: "ip2_1"
    lr_mult: 10
  }
  param {
    #name: "ip2_2"
    lr_mult: 20
  }
  inner_product_param {
    num_output: 1024
    weight_filler {
      type: "gaussian"
      std: 0.01
    }
    bias_filler {
      type: "constant"
    }
  }
  include: { phase: TRAIN }
}
layer {
  name: "dc_relu288"
  type: "ReLU"
  bottom: "dc_ip288"
  top: "dc_ip288"
  include: { phase: TRAIN }
}
layer {
  name: "dc_drop288"
  type: "Dropout"
  bottom: "dc_ip288"
  top: "dc_ip288"
  dropout_param {
    dropout_ratio: 0.5
  }
  include: { phase: TRAIN }
}
layer {
  name: "dc_ip388"
  type: "InnerProduct"
  bottom: "dc_ip288"
  top: "dc_ip388"
  param {
    lr_mult: 10
  }
  param {
    lr_mult: 20
  }
  inner_product_param {
    num_output: 1
    weight_filler {
      type: "gaussian"
      std: 0.3
    }
    bias_filler {
      type: "constant"
    }
  }
  include: { phase: TRAIN }
}
layer {
  name: "dc_loss88"
  type: "SigmoidCrossEntropyLoss"
  bottom: "dc_ip388"
  bottom: "dc_labels"
  top: "dc_loss88"
  loss_weight: 0.3
  include: { phase: TRAIN }
}
layer {
  name: "dc_ip189"
  type: "InnerProduct"
  bottom: "grl89"
  top: "dc_ip189"
  param {
    #name: "ip1_1"
    lr_mult: 10
  }
  param {
    #name: "ip1_2"
    lr_mult: 20
  }
  inner_product_param {
    num_output: 1024
    weight_filler {
      type: "gaussian"
      std: 0.01
    }
    bias_filler {
      type: "constant"
    }
  }
  include: { phase: TRAIN }
}
layer {
  name: "dc_relu189"
  type: "ReLU"
  bottom: "dc_ip189"
  top: "dc_ip189"
  include: { phase: TRAIN }
}
layer {
  name: "dc_drop189"
  type: "Dropout"
  bottom: "dc_ip189"
  top: "dc_ip189"
  dropout_param {
    dropout_ratio: 0.5
  }
  include: { phase: TRAIN }
}
layer {
  name: "dc_ip289"
  type: "InnerProduct"
  bottom: "dc_ip189"
  top: "dc_ip289"
  param {
    #name: "ip2_1"
    lr_mult: 10
  }
  param {
    #name: "ip2_2"
    lr_mult: 20
  }
  inner_product_param {
    num_output: 1024
    weight_filler {
      type: "gaussian"
      std: 0.01
    }
    bias_filler {
      type: "constant"
    }
  }
  include: { phase: TRAIN }
}
layer {
  name: "dc_relu289"
  type: "ReLU"
  bottom: "dc_ip289"
  top: "dc_ip289"
  include: { phase: TRAIN }
}
layer {
  name: "dc_drop289"
  type: "Dropout"
  bottom: "dc_ip289"
  top: "dc_ip289"
  dropout_param {
    dropout_ratio: 0.5
  }
  include: { phase: TRAIN }
}
layer {
  name: "dc_ip389"
  type: "InnerProduct"
  bottom: "dc_ip289"
  top: "dc_ip389"
  param {
    lr_mult: 10
  }
  param {
    lr_mult: 20
  }
  inner_product_param {
    num_output: 1
    weight_filler {
      type: "gaussian"
      std: 0.3
    }
    bias_filler {
      type: "constant"
    }
  }
  include: { phase: TRAIN }
}
layer {
  name: "dc_loss89"
  type: "SigmoidCrossEntropyLoss"
  bottom: "dc_ip389"
  bottom: "dc_labels"
  top: "dc_loss89"
  loss_weight: 0.3
  include: { phase: TRAIN }
}
layer {
  name: "dc_ip190"
  type: "InnerProduct"
  bottom: "grl90"
  top: "dc_ip190"
  param {
    #name: "ip1_1"
    lr_mult: 10
  }
  param {
    #name: "ip1_2"
    lr_mult: 20
  }
  inner_product_param {
    num_output: 1024
    weight_filler {
      type: "gaussian"
      std: 0.01
    }
    bias_filler {
      type: "constant"
    }
  }
  include: { phase: TRAIN }
}
layer {
  name: "dc_relu190"
  type: "ReLU"
  bottom: "dc_ip190"
  top: "dc_ip190"
  include: { phase: TRAIN }
}
layer {
  name: "dc_drop190"
  type: "Dropout"
  bottom: "dc_ip190"
  top: "dc_ip190"
  dropout_param {
    dropout_ratio: 0.5
  }
  include: { phase: TRAIN }
}
layer {
  name: "dc_ip290"
  type: "InnerProduct"
  bottom: "dc_ip190"
  top: "dc_ip290"
  param {
    #name: "ip2_1"
    lr_mult: 10
  }
  param {
    #name: "ip2_2"
    lr_mult: 20
  }
  inner_product_param {
    num_output: 1024
    weight_filler {
      type: "gaussian"
      std: 0.01
    }
    bias_filler {
      type: "constant"
    }
  }
  include: { phase: TRAIN }
}
layer {
  name: "dc_relu290"
  type: "ReLU"
  bottom: "dc_ip290"
  top: "dc_ip290"
  include: { phase: TRAIN }
}
layer {
  name: "dc_drop290"
  type: "Dropout"
  bottom: "dc_ip290"
  top: "dc_ip290"
  dropout_param {
    dropout_ratio: 0.5
  }
  include: { phase: TRAIN }
}
layer {
  name: "dc_ip390"
  type: "InnerProduct"
  bottom: "dc_ip290"
  top: "dc_ip390"
  param {
    lr_mult: 10
  }
  param {
    lr_mult: 20
  }
  inner_product_param {
    num_output: 1
    weight_filler {
      type: "gaussian"
      std: 0.3
    }
    bias_filler {
      type: "constant"
    }
  }
  include: { phase: TRAIN }
}
layer {
  name: "dc_loss90"
  type: "SigmoidCrossEntropyLoss"
  bottom: "dc_ip390"
  bottom: "dc_labels"
  top: "dc_loss90"
  loss_weight: 0.3
  include: { phase: TRAIN }
}
layer {
  name: "dc_ip191"
  type: "InnerProduct"
  bottom: "grl91"
  top: "dc_ip191"
  param {
    #name: "ip1_1"
    lr_mult: 10
  }
  param {
    #name: "ip1_2"
    lr_mult: 20
  }
  inner_product_param {
    num_output: 1024
    weight_filler {
      type: "gaussian"
      std: 0.01
    }
    bias_filler {
      type: "constant"
    }
  }
  include: { phase: TRAIN }
}
layer {
  name: "dc_relu191"
  type: "ReLU"
  bottom: "dc_ip191"
  top: "dc_ip191"
  include: { phase: TRAIN }
}
layer {
  name: "dc_drop191"
  type: "Dropout"
  bottom: "dc_ip191"
  top: "dc_ip191"
  dropout_param {
    dropout_ratio: 0.5
  }
  include: { phase: TRAIN }
}
layer {
  name: "dc_ip291"
  type: "InnerProduct"
  bottom: "dc_ip191"
  top: "dc_ip291"
  param {
    #name: "ip2_1"
    lr_mult: 10
  }
  param {
    #name: "ip2_2"
    lr_mult: 20
  }
  inner_product_param {
    num_output: 1024
    weight_filler {
      type: "gaussian"
      std: 0.01
    }
    bias_filler {
      type: "constant"
    }
  }
  include: { phase: TRAIN }
}
layer {
  name: "dc_relu291"
  type: "ReLU"
  bottom: "dc_ip291"
  top: "dc_ip291"
  include: { phase: TRAIN }
}
layer {
  name: "dc_drop291"
  type: "Dropout"
  bottom: "dc_ip291"
  top: "dc_ip291"
  dropout_param {
    dropout_ratio: 0.5
  }
  include: { phase: TRAIN }
}
layer {
  name: "dc_ip391"
  type: "InnerProduct"
  bottom: "dc_ip291"
  top: "dc_ip391"
  param {
    lr_mult: 10
  }
  param {
    lr_mult: 20
  }
  inner_product_param {
    num_output: 1
    weight_filler {
      type: "gaussian"
      std: 0.3
    }
    bias_filler {
      type: "constant"
    }
  }
  include: { phase: TRAIN }
}
layer {
  name: "dc_loss91"
  type: "SigmoidCrossEntropyLoss"
  bottom: "dc_ip391"
  bottom: "dc_labels"
  top: "dc_loss91"
  loss_weight: 0.3
  include: { phase: TRAIN }
}
layer {
  name: "dc_ip192"
  type: "InnerProduct"
  bottom: "grl92"
  top: "dc_ip192"
  param {
    #name: "ip1_1"
    lr_mult: 10
  }
  param {
    #name: "ip1_2"
    lr_mult: 20
  }
  inner_product_param {
    num_output: 1024
    weight_filler {
      type: "gaussian"
      std: 0.01
    }
    bias_filler {
      type: "constant"
    }
  }
  include: { phase: TRAIN }
}
layer {
  name: "dc_relu192"
  type: "ReLU"
  bottom: "dc_ip192"
  top: "dc_ip192"
  include: { phase: TRAIN }
}
layer {
  name: "dc_drop192"
  type: "Dropout"
  bottom: "dc_ip192"
  top: "dc_ip192"
  dropout_param {
    dropout_ratio: 0.5
  }
  include: { phase: TRAIN }
}
layer {
  name: "dc_ip292"
  type: "InnerProduct"
  bottom: "dc_ip192"
  top: "dc_ip292"
  param {
    #name: "ip2_1"
    lr_mult: 10
  }
  param {
    #name: "ip2_2"
    lr_mult: 20
  }
  inner_product_param {
    num_output: 1024
    weight_filler {
      type: "gaussian"
      std: 0.01
    }
    bias_filler {
      type: "constant"
    }
  }
  include: { phase: TRAIN }
}
layer {
  name: "dc_relu292"
  type: "ReLU"
  bottom: "dc_ip292"
  top: "dc_ip292"
  include: { phase: TRAIN }
}
layer {
  name: "dc_drop292"
  type: "Dropout"
  bottom: "dc_ip292"
  top: "dc_ip292"
  dropout_param {
    dropout_ratio: 0.5
  }
  include: { phase: TRAIN }
}
layer {
  name: "dc_ip392"
  type: "InnerProduct"
  bottom: "dc_ip292"
  top: "dc_ip392"
  param {
    lr_mult: 10
  }
  param {
    lr_mult: 20
  }
  inner_product_param {
    num_output: 1
    weight_filler {
      type: "gaussian"
      std: 0.3
    }
    bias_filler {
      type: "constant"
    }
  }
  include: { phase: TRAIN }
}
layer {
  name: "dc_loss92"
  type: "SigmoidCrossEntropyLoss"
  bottom: "dc_ip392"
  bottom: "dc_labels"
  top: "dc_loss92"
  loss_weight: 0.3
  include: { phase: TRAIN }
}
layer {
  name: "dc_ip193"
  type: "InnerProduct"
  bottom: "grl93"
  top: "dc_ip193"
  param {
    #name: "ip1_1"
    lr_mult: 10
  }
  param {
    #name: "ip1_2"
    lr_mult: 20
  }
  inner_product_param {
    num_output: 1024
    weight_filler {
      type: "gaussian"
      std: 0.01
    }
    bias_filler {
      type: "constant"
    }
  }
  include: { phase: TRAIN }
}
layer {
  name: "dc_relu193"
  type: "ReLU"
  bottom: "dc_ip193"
  top: "dc_ip193"
  include: { phase: TRAIN }
}
layer {
  name: "dc_drop193"
  type: "Dropout"
  bottom: "dc_ip193"
  top: "dc_ip193"
  dropout_param {
    dropout_ratio: 0.5
  }
  include: { phase: TRAIN }
}
layer {
  name: "dc_ip293"
  type: "InnerProduct"
  bottom: "dc_ip193"
  top: "dc_ip293"
  param {
    #name: "ip2_1"
    lr_mult: 10
  }
  param {
    #name: "ip2_2"
    lr_mult: 20
  }
  inner_product_param {
    num_output: 1024
    weight_filler {
      type: "gaussian"
      std: 0.01
    }
    bias_filler {
      type: "constant"
    }
  }
  include: { phase: TRAIN }
}
layer {
  name: "dc_relu293"
  type: "ReLU"
  bottom: "dc_ip293"
  top: "dc_ip293"
  include: { phase: TRAIN }
}
layer {
  name: "dc_drop293"
  type: "Dropout"
  bottom: "dc_ip293"
  top: "dc_ip293"
  dropout_param {
    dropout_ratio: 0.5
  }
  include: { phase: TRAIN }
}
layer {
  name: "dc_ip393"
  type: "InnerProduct"
  bottom: "dc_ip293"
  top: "dc_ip393"
  param {
    lr_mult: 10
  }
  param {
    lr_mult: 20
  }
  inner_product_param {
    num_output: 1
    weight_filler {
      type: "gaussian"
      std: 0.3
    }
    bias_filler {
      type: "constant"
    }
  }
  include: { phase: TRAIN }
}
layer {
  name: "dc_loss93"
  type: "SigmoidCrossEntropyLoss"
  bottom: "dc_ip393"
  bottom: "dc_labels"
  top: "dc_loss93"
  loss_weight: 0.3
  include: { phase: TRAIN }
}
layer {
  name: "dc_ip194"
  type: "InnerProduct"
  bottom: "grl94"
  top: "dc_ip194"
  param {
    #name: "ip1_1"
    lr_mult: 10
  }
  param {
    #name: "ip1_2"
    lr_mult: 20
  }
  inner_product_param {
    num_output: 1024
    weight_filler {
      type: "gaussian"
      std: 0.01
    }
    bias_filler {
      type: "constant"
    }
  }
  include: { phase: TRAIN }
}
layer {
  name: "dc_relu194"
  type: "ReLU"
  bottom: "dc_ip194"
  top: "dc_ip194"
  include: { phase: TRAIN }
}
layer {
  name: "dc_drop194"
  type: "Dropout"
  bottom: "dc_ip194"
  top: "dc_ip194"
  dropout_param {
    dropout_ratio: 0.5
  }
  include: { phase: TRAIN }
}
layer {
  name: "dc_ip294"
  type: "InnerProduct"
  bottom: "dc_ip194"
  top: "dc_ip294"
  param {
    #name: "ip2_1"
    lr_mult: 10
  }
  param {
    #name: "ip2_2"
    lr_mult: 20
  }
  inner_product_param {
    num_output: 1024
    weight_filler {
      type: "gaussian"
      std: 0.01
    }
    bias_filler {
      type: "constant"
    }
  }
  include: { phase: TRAIN }
}
layer {
  name: "dc_relu294"
  type: "ReLU"
  bottom: "dc_ip294"
  top: "dc_ip294"
  include: { phase: TRAIN }
}
layer {
  name: "dc_drop294"
  type: "Dropout"
  bottom: "dc_ip294"
  top: "dc_ip294"
  dropout_param {
    dropout_ratio: 0.5
  }
  include: { phase: TRAIN }
}
layer {
  name: "dc_ip394"
  type: "InnerProduct"
  bottom: "dc_ip294"
  top: "dc_ip394"
  param {
    lr_mult: 10
  }
  param {
    lr_mult: 20
  }
  inner_product_param {
    num_output: 1
    weight_filler {
      type: "gaussian"
      std: 0.3
    }
    bias_filler {
      type: "constant"
    }
  }
  include: { phase: TRAIN }
}
layer {
  name: "dc_loss94"
  type: "SigmoidCrossEntropyLoss"
  bottom: "dc_ip394"
  bottom: "dc_labels"
  top: "dc_loss94"
  loss_weight: 0.3
  include: { phase: TRAIN }
}
layer {
  name: "dc_ip195"
  type: "InnerProduct"
  bottom: "grl95"
  top: "dc_ip195"
  param {
    #name: "ip1_1"
    lr_mult: 10
  }
  param {
    #name: "ip1_2"
    lr_mult: 20
  }
  inner_product_param {
    num_output: 1024
    weight_filler {
      type: "gaussian"
      std: 0.01
    }
    bias_filler {
      type: "constant"
    }
  }
  include: { phase: TRAIN }
}
layer {
  name: "dc_relu195"
  type: "ReLU"
  bottom: "dc_ip195"
  top: "dc_ip195"
  include: { phase: TRAIN }
}
layer {
  name: "dc_drop195"
  type: "Dropout"
  bottom: "dc_ip195"
  top: "dc_ip195"
  dropout_param {
    dropout_ratio: 0.5
  }
  include: { phase: TRAIN }
}
layer {
  name: "dc_ip295"
  type: "InnerProduct"
  bottom: "dc_ip195"
  top: "dc_ip295"
  param {
    #name: "ip2_1"
    lr_mult: 10
  }
  param {
    #name: "ip2_2"
    lr_mult: 20
  }
  inner_product_param {
    num_output: 1024
    weight_filler {
      type: "gaussian"
      std: 0.01
    }
    bias_filler {
      type: "constant"
    }
  }
  include: { phase: TRAIN }
}
layer {
  name: "dc_relu295"
  type: "ReLU"
  bottom: "dc_ip295"
  top: "dc_ip295"
  include: { phase: TRAIN }
}
layer {
  name: "dc_drop295"
  type: "Dropout"
  bottom: "dc_ip295"
  top: "dc_ip295"
  dropout_param {
    dropout_ratio: 0.5
  }
  include: { phase: TRAIN }
}
layer {
  name: "dc_ip395"
  type: "InnerProduct"
  bottom: "dc_ip295"
  top: "dc_ip395"
  param {
    lr_mult: 10
  }
  param {
    lr_mult: 20
  }
  inner_product_param {
    num_output: 1
    weight_filler {
      type: "gaussian"
      std: 0.3
    }
    bias_filler {
      type: "constant"
    }
  }
  include: { phase: TRAIN }
}
layer {
  name: "dc_loss95"
  type: "SigmoidCrossEntropyLoss"
  bottom: "dc_ip395"
  bottom: "dc_labels"
  top: "dc_loss95"
  loss_weight: 0.3
  include: { phase: TRAIN }
}
layer {
  name: "dc_ip196"
  type: "InnerProduct"
  bottom: "grl96"
  top: "dc_ip196"
  param {
    #name: "ip1_1"
    lr_mult: 10
  }
  param {
    #name: "ip1_2"
    lr_mult: 20
  }
  inner_product_param {
    num_output: 1024
    weight_filler {
      type: "gaussian"
      std: 0.01
    }
    bias_filler {
      type: "constant"
    }
  }
  include: { phase: TRAIN }
}
layer {
  name: "dc_relu196"
  type: "ReLU"
  bottom: "dc_ip196"
  top: "dc_ip196"
  include: { phase: TRAIN }
}
layer {
  name: "dc_drop196"
  type: "Dropout"
  bottom: "dc_ip196"
  top: "dc_ip196"
  dropout_param {
    dropout_ratio: 0.5
  }
  include: { phase: TRAIN }
}
layer {
  name: "dc_ip296"
  type: "InnerProduct"
  bottom: "dc_ip196"
  top: "dc_ip296"
  param {
    #name: "ip2_1"
    lr_mult: 10
  }
  param {
    #name: "ip2_2"
    lr_mult: 20
  }
  inner_product_param {
    num_output: 1024
    weight_filler {
      type: "gaussian"
      std: 0.01
    }
    bias_filler {
      type: "constant"
    }
  }
  include: { phase: TRAIN }
}
layer {
  name: "dc_relu296"
  type: "ReLU"
  bottom: "dc_ip296"
  top: "dc_ip296"
  include: { phase: TRAIN }
}
layer {
  name: "dc_drop296"
  type: "Dropout"
  bottom: "dc_ip296"
  top: "dc_ip296"
  dropout_param {
    dropout_ratio: 0.5
  }
  include: { phase: TRAIN }
}
layer {
  name: "dc_ip396"
  type: "InnerProduct"
  bottom: "dc_ip296"
  top: "dc_ip396"
  param {
    lr_mult: 10
  }
  param {
    lr_mult: 20
  }
  inner_product_param {
    num_output: 1
    weight_filler {
      type: "gaussian"
      std: 0.3
    }
    bias_filler {
      type: "constant"
    }
  }
  include: { phase: TRAIN }
}
layer {
  name: "dc_loss96"
  type: "SigmoidCrossEntropyLoss"
  bottom: "dc_ip396"
  bottom: "dc_labels"
  top: "dc_loss96"
  loss_weight: 0.3
  include: { phase: TRAIN }
}
layer {
  name: "dc_ip197"
  type: "InnerProduct"
  bottom: "grl97"
  top: "dc_ip197"
  param {
    #name: "ip1_1"
    lr_mult: 10
  }
  param {
    #name: "ip1_2"
    lr_mult: 20
  }
  inner_product_param {
    num_output: 1024
    weight_filler {
      type: "gaussian"
      std: 0.01
    }
    bias_filler {
      type: "constant"
    }
  }
  include: { phase: TRAIN }
}
layer {
  name: "dc_relu197"
  type: "ReLU"
  bottom: "dc_ip197"
  top: "dc_ip197"
  include: { phase: TRAIN }
}
layer {
  name: "dc_drop197"
  type: "Dropout"
  bottom: "dc_ip197"
  top: "dc_ip197"
  dropout_param {
    dropout_ratio: 0.5
  }
  include: { phase: TRAIN }
}
layer {
  name: "dc_ip297"
  type: "InnerProduct"
  bottom: "dc_ip197"
  top: "dc_ip297"
  param {
    #name: "ip2_1"
    lr_mult: 10
  }
  param {
    #name: "ip2_2"
    lr_mult: 20
  }
  inner_product_param {
    num_output: 1024
    weight_filler {
      type: "gaussian"
      std: 0.01
    }
    bias_filler {
      type: "constant"
    }
  }
  include: { phase: TRAIN }
}
layer {
  name: "dc_relu297"
  type: "ReLU"
  bottom: "dc_ip297"
  top: "dc_ip297"
  include: { phase: TRAIN }
}
layer {
  name: "dc_drop297"
  type: "Dropout"
  bottom: "dc_ip297"
  top: "dc_ip297"
  dropout_param {
    dropout_ratio: 0.5
  }
  include: { phase: TRAIN }
}
layer {
  name: "dc_ip397"
  type: "InnerProduct"
  bottom: "dc_ip297"
  top: "dc_ip397"
  param {
    lr_mult: 10
  }
  param {
    lr_mult: 20
  }
  inner_product_param {
    num_output: 1
    weight_filler {
      type: "gaussian"
      std: 0.3
    }
    bias_filler {
      type: "constant"
    }
  }
  include: { phase: TRAIN }
}
layer {
  name: "dc_loss97"
  type: "SigmoidCrossEntropyLoss"
  bottom: "dc_ip397"
  bottom: "dc_labels"
  top: "dc_loss97"
  loss_weight: 0.3
  include: { phase: TRAIN }
}
